tf_lite_model.tflite (tflite, 408664 bytes, 4 tensors)

dense_3/bias f4 [10]
-0.060667027 -0.40343776 0.20717916 0.3003444 -0.40498763 0.036168225 0.20894186 0.28300253
-0.16114827 -0.50260955
00000000: fd7d 78bd 658f cebe c626 543e bec6 993e
00000010: 8a5a cfbe 2225 143d dbf4 553e b5e5 903e
00000020: 0d04 25be 05ab 00bf

dense_2/bias f4 [128]
0.24585424 -0.021724017 0.16824564 0.038070887 0.0481609 -0.011751787 -0.013715202 0.0861922
-0.06770746 0.1071628 0.32045504 0.45484185 0.7409997 0.6548999 -0.17547536 0.27322948
0.5052424 0.4982144 0.20240475 -0.0066486956 0.33361796 0.21082073 0.042816862 -0.21054713
0.7602701 0.3747265 -0.33018667 -0.036390677 0.6352833 0.02875899 0.74490345 -0.018088855
0.4157107 -0.37712392 0.44939405 0.5637955 -0.17938633 -0.17508289 -0.35310656 -0.01892323
0.81727946 -0.3644442 0.5804372 0.85394305 -0.015806224 -0.21012965 -0.17192885 0.28281152
-0.024250703 -0.16508818 0.067494646 0.5134589 0.06739393 0.22272898 0.51685774 -0.021107499
0.049883828 -0.08489746 0.46116555 0.4956996 -0.30540943 0.42690846 0.21439587 -0.030401282
-0.008886814 0.0066397963 0.17359892 0.11605546 0.16651568 0.38716486 0.23420162 0.22108257
-0.043379024 0.28918874 0.27343893 0.5106488 0.052409668 0.65750915 0.18443482 0.3991178
0.16095236 0.5948687 0.40682766 -0.015804665 0.34519878 0.6141907 -0.018913401 0.5766403
0.35838637 0.12951484 0.16707328 -0.015436557 -0.009217993 0.39936107 0.35836217 0.16098882
0.15945801 0.28498843 -0.08701499 0.30748448 -0.037369102 0.27200788 0.16913544 0.46469235
-0.4128667 0.43299368 0.45626295 0.18950157 0.073704384 0.1820846 -0.21207564 0.37337297
0.7029225 0.450265 -0.003286139 -0.2355998 -0.32338342 -0.27170768 0.23244832 0.46229267
0.32538545 0.62254393 0.47750387 0.34752086 0.13092822 0.5833733 0.16827895 0.07744808
00000000: 37c1 7b3e 91f6 b1bc 9648 2c3e 38f0 1b3d
00000010: 5d44 453d 918a 40bc bab5 60bc 8985 b03d
00000020: 35aa 8abd 2c78 db3d af12 a43e 08e1 e83e
00000030: 28b2 3d3f 85a7 273f d0af 33be bce4 8b3e
00000040: 9157 013f f515 ff3e 3143 4f3e 4ddd d9bb
00000050: f9cf aa3e 64e1 573e bc60 2f3d ab99 57be
00000060: 10a1 423f 27dc bf3e 3a0e a9be 640e 15bd
00000070: eda1 223f f997 eb3c feb1 3e3f 142f 94bc
00000080: 08d8 d43e 6316 c1be fa16 e63e e754 103f
00000090: 0db1 37be ee48 33be 62ca b4be e404 9bbc
000000a0: 3a39 513f 6e98 babe 8897 143f 039c 5a3f
000000b0: 0e7c 81bc 3a2c 57be 1e0e 30be accc 903e
000000c0: 69a9 c6bc e00c 29be a23a 8a3d 0b72 033f
000000d0: d405 8a3d 1113 643e ca50 043f a2e9 acbc
000000e0: fc52 4c3d b8de adbd e41d ec3e 57cc fd3e
000000f0: a05e 9cbe bf93 da3e 978a 5b3e 1c0c f9bc
00000100: 009a 11bc a692 d93b eac3 313e 7cae ed3d
00000110: 1683 2a3e 793a c63e 8dd2 6f3e 7863 623e
00000120: 34ae 31bd 8c10 943e 3000 8c3e e1b9 023f
00000130: 85ab 563d 8552 283f 7bdc 3c3e 2b59 cc3e
00000140: b2d0 243e 5149 183f b74b d03e c978 81bc
00000150: e5bd b03e 9a3b 1d3f 47f0 9abc b39e 133f
00000160: 6b7e b73e 8a9f 043e 4215 2b3e 9de9 7cbc
00000170: 1107 17bc 0e79 cc3e 3f7b b73e 41da 243e
00000180: f648 233e 01ea 913e ea34 b2bd 9b6e 9d3e
00000190: 5810 19bd 9e44 8b3e d731 2d3e 28ec ed3e
000001a0: 4463 d3be 59b1 dd3e 4c9b e93e b30c 423e
000001b0: 53f2 963d 6374 3a3e 5b2a 59be be2a bf3e
000001c0: bbf2 333f 2289 e63e 445c 57bb 1341 71be
000001d0: 8392 a5be 451d 8bbe ef06 6e3e a0b1 ec3e
000001e0: ec98 a63e 0a5f 1f3f 637b f43e 41ee b13e
000001f0: 0c12 063e f457 153f 5151 2c3e 199d 9e3d

sequential_1/dense_2/MatMul f4 [128, 784]
0.25622553 -0.061897274 -0.11181428 0.44242996 0.26308602 0.5927815 0.79876727 0.2757425
-0.026927385 0.29042557 0.07511053 -0.22744116 0.0653621 -0.0277367 -0.175888 0.21253726
-0.20598713 0.020175936 -0.12744 -0.52989715 -0.4108187 0.32260212 0.16414489 0.24468888
0.27660793 0.19581145 -0.05861976 0.028487213 -0.28160113 -0.24580875 -0.3274933 0.296351
0.1740974 0.68716186 0.6554891 0.1776257 0.23418844 -0.026185075 -0.06931245 -0.049631972
0.18304396 0.12032151 -0.07194387 -0.09371481 -0.2807701 -0.41222805 -0.31670004 -0.17167379
0.00813431 0.33907747 0.44847026 0.28879672 0.3677986 0.21569322 -0.15636504 -0.38884175
0.048529286 0.05040874 -0.036442786 0.22218427 0.20346512 0.51664555 0.39682382 0.1568077
0.24728493 0.0905671 0.025683999 0.17773183 -0.049434684 -0.011926148 -0.08084719 -0.061151084
-0.010433253 0.07667186 -0.18914554 -0.008237419 -0.09485052 0.32331267 0.15773067 0.31319407
0.053622212 0.20955317 0.04117978 -0.13120826 0.41722065 0.07297269 -0.18264844 0.06803899
0.16242468 0.49519163 0.17648236 0.10577278 0.3067288 0.02943816 -0.03348612 0.18366873
0.04327803 -0.016003732 -0.09297019 0.048739046 0.1166635 -0.12488555 -0.15129037 0.09031801
-0.22922604 0.011666549 0.18076564 0.020917933 -0.2745059 0.1924561 0.28211847 -0.036774307
0.021976722 0.026525607 0.20034753 -0.1826637 0.18980558 0.31024185 0.14075938 0.048067667
0.19821416 -0.014535298 0.08876409 0.1496959 0.06286358 0.007591822 -0.07224937 0.18888165
0.10420541 0.0815013 -0.118239656 -0.014557736 -0.065169 -0.091730095 0.026999576 -0.044024844
-0.1988475 0.17543459 0.2820729 -0.18977886 0.18564546 0.4997298 -0.16068001 0.07826367
0.03095106 0.22060743 0.061480254 -0.023031024 0.11507429 0.086936064 0.11028585 0.010680908
-0.045378603 -0.048098218 -0.090576775 0.09824875 0.04857793 -0.12079671 -0.12779325 -0.028388726
-0.24096553 -0.21788879 -0.010359237 -0.14703135 -0.14439078 0.040724378 0.0729656 -0.42133972
0.1226919 0.42226812 -0.14378862 -0.06901185 -0.022223989 -0.07338016 -0.23664375 -0.15855864
0.041636325 0.29711476 0.17334814 -0.16600364 0.09394317 -0.045753244 -0.1387287 -0.047544617
0.0059243077 -0.011824984 0.045211736 0.03222302 -0.21586996 -0.2769608 -0.07428593 -0.25095856
0.019085484 -0.2790772 -0.4436384 -0.18243876 0.24348114 0.17482448 -0.27075005 -0.33727804
-0.15171492 -0.038092773 -0.16925894 -0.08663401 -0.1271769 0.17692289 0.013196108 -0.028599758
0.071205504 0.12599868 0.026791519 0.18992534 0.076106414 -0.08032978 0.03247615 0.15374641
0.06964089 -0.118912525 -0.0037685889 -0.3879527 -0.31486505 -0.4460155 -0.53706235 -0.19348164
0.16457333 0.16188939 -0.23551589 -0.29174924 -0.18431015 -0.18631457 -0.06664012 -0.24157022
-0.09857122 0.029818062 -0.07253517 0.02408558 0.0711571 0.08665098 -0.001999587 0.0029441677
-0.11961741 -0.04693266 -0.0083068255 0.0870366 0.021311328 -0.05672584 -0.017222458 -0.39491725
-0.3942516 -0.33370784 -0.36174625 0.087043315 0.14543505 0.13691793 -0.16488047 -0.09996283
00000000: fe2f 833e ff87 7dbd e3fe e4bd 2e86 e23e
00000010: 36b3 863e 87c0 173f 037c 4c3f 1f2e 8d3e
00000020: d296 dcbc a9b2 943e 8dd3 993d 56e6 68be
00000030: 91dc 853d 1338 e3bc fc1b 34be 5ea3 593e
00000040: 4aee 52be 0148 a53c a27f 02be 57a7 07bf
00000050: d456 d2be 1b2c a53e 9915 283e b98f 7a3e
00000060: 8e9f 8d3e cc82 483e 461b 70bd 045e e93c
00000070: 062e 90be 4ab5 7bbe 34ad a7be 51bb 973e
00000080: 9746 323e d7e9 2f3f 22ce 273f 83e3 353e
00000090: 18cf 6f3e 1582 d6bc b0f3 8dbd e54a 4bbd
000000a0: e06f 3b3e 206b f63d 4f57 93bd 8ded bfbd
000000b0: 19c1 8fbe 8e0f d3be 8226 a2be 41cb 2fbe
000000c0: c545 053c 909b ad3e e59d e53e 2add 933e
000000d0: 1950 bc3e afde 5c3e 281e 20be 4416 c7be
000000e0: a5c6 463d 6579 4e3d 0845 15bd 4684 633e
000000f0: 2959 503e e242 043f 7e2c cb3e 3392 203e
00000100: 4338 7d3e 3e7b b93d 4067 d23c 55ff 353e
00000110: 067c 4abd e465 43bc 3693 a5bd 8f79 7abd
00000120: 3cf0 2abc 2306 9d3d 5eaf 41be 3df6 06bc
00000130: fd40 c2bd 3d89 a53e 2684 213e f95a a03e
00000140: f7a2 5b3d 1b95 563e 21ac 283d 755b 06be
00000150: f29d d53e b572 953d 3108 3bbe 0758 8b3d
00000160: a852 263e c289 fd3e cbb7 343e 669f d83d
00000170: 8f0b 9d3e 4c28 f13c be28 09bd a813 3c3e
00000180: 4e44 313d 421a 83bc 2867 bebd 98a2 473d
00000190: 46ed ee3d ffc3 ffbd ddeb 1abe a6f8 b83d
000001a0: 3bba 6abe 0e25 3f3c a11a 393e 165c ab3c
000001b0: 0a8c 8cbe 3613 453e d571 903e a8a0 16bd
000001c0: 8708 b43c 3b4c d93c e727 4d3e 310c 3bbe
000001d0: 655c 423e 05d8 9e3e 3a23 103e 9ae2 443d
000001e0: a7f8 4a3e 7525 6ebc f2c9 b53d e249 193e
000001f0: 9fbe 803d d2c4 f83b 7af7 93bd 316a 413e
00000200: a569 d53d 27ea a63d a227 f2bd 9283 6ebc
00000210: 5377 85bd fddc bbbd 372e dd3c 6553 34bd
00000220: ae9e 4bbe 20a5 333e dc6b 903e 6455 42be
00000230: d819 3e3e 96dc ff3e 4d89 24be b448 a03d
00000240: 148d fd3c eae6 613e b8d2 7b3d 8fab bcbc
00000250: 12ac eb3d 890b b23d 8cdd e13d fafe 2e3c
00000260: eade 39bd a302 45bd 5180 b9bd a436 c93d
00000270: a7f9 463d 4464 f7bd 3cdc 02be 798f e8bc
00000280: abbf 76be 3d1e 5fbe cab9 29bc 638f 16be
00000290: 2ddb 13be 9bce 263d fd6e 953d d7b9 d7be
000002a0: e445 fb3d 8733 d83e 533d 13be 1656 8dbd
000002b0: 150f b6bc 5648 96bd bd52 72be 325d 22be
000002c0: da8a 2a3d 6d1f 983e 2d82 313e dcfc 29be
000002d0: 4765 c03d c167 3bbd e50e 0ebe 25be 42bd
000002e0: b220 c23b 94bd 41bc f12f 393d 49fc 033d
000002f0: 040d 5dbe cecd 8dbe 3923 98bd a47d 80be
00000300: 2959 9c3c 35e3 8ebe 9324 e3be 3ad1 3abe
00000310: 1f53 793e 3005 333e c09f 8abe b5af acbe
00000320: 285b 1bbe 2b07 1cbd 3752 2dbe 2c6d b1bd
00000330: a93a 02be 462b 353e 7d34 583c 0a4a eabc
00000340: 31d4 913d cc05 013e e379 db3c ca7b 423e
00000350: aedd 9b3d f183 a4bd b605 053d b36f 1d3e
00000360: e29f 8e3d 6988 f3bd 6efa 76bb bca1 c6be
00000370: fe35 a1be 255c e4be eb7c 09bf 0d20 46be
00000380: e985 283e 55c6 253e 142b 71be 2860 95be
00000390: cdbb 3cbe 3fc9 3ebe 9e7a 88bd 2f5e 77be
000003a0: b5df c9bd 0245 f43c 528d 94bd 1f4f c53c
000003b0: d0ba 913d 1276 b13d 810b 03bb f0f2 403b
000003c0: f9f9 f4bd 763c 40bd 5a19 08bc 3f40 b23d
000003d0: 1895 ae3c 5b59 68bd 1d16 8dbc 9832 cabe
000003e0: 59db c9be c1db aabe ce36 b9be c443 b23d
000003f0: edec 143e 3734 0c3e 6dd6 28be 50b9 ccbd

sequential_1/dense_3/MatMul f4 [10, 128]
0.0016612043 -0.030439446 0.28051183 0.0023335689 -0.76428473 0.15940662 0.07205796 0.14364053
-0.27867395 0.11744813 0.106369704 -0.54534554 -0.5610275 -0.09378888 -0.11745602 -0.02368574
-0.01073548 0.0322159 -0.022688031 0.070281826 -0.1872904 -0.36289907 -0.48309633 -0.19091853
-0.02475524 0.16980481 -0.038215537 -0.08707623 -0.25126612 -0.006324134 0.27035946 -0.05213572
0.048319697 -0.3171691 -0.2201478 -0.36724108 -0.24888483 0.03153098 0.21953398 -0.18706104
-0.18815129 -0.08893831 -0.4337174 -0.46934125 -0.04189383 0.25442958 -0.34363812 0.4143619
-0.19943555 0.107556194 0.03992888 0.0884318 -0.045933783 0.29248697 -0.510458 0.0033794164
-0.121071294 0.1651859 0.098704696 -0.021371078 -0.15051605 0.28279972 0.07913256 -0.15146495
0.16254516 0.19850163 0.040349238 -0.37225905 0.097691305 0.09083743 0.19522932 -0.62489086
0.029602664 -0.19535597 0.0063872095 0.4431238 0.33284652 0.023969868 -0.18159221 0.2536553
0.085650064 -0.44336912 0.07619989 0.032931767 -0.25912446 0.694007 -0.1409101 -0.08612808
-0.5471275 -0.29450607 -0.2396489 0.04831547 0.23319684 -0.20843095 0.05246784 -1.0523446
0.03141057 -0.08139072 0.119076535 0.12942912 -0.1292411 -0.058329646 -0.65762675 0.22210787
0.17257942 -0.10155505 0.038890183 -0.28548574 -0.12003103 0.021219354 0.082441375 -0.11654307
-0.4273865 0.16781016 -0.039572112 0.06413959 0.021739803 0.048223384 -0.05992957 0.054392707
0.22882247 0.10495739 -0.13855302 -0.14326815 -0.1145159 -0.0012903381 0.24555907 -0.1435291
0.096339464 -0.105802104 -0.4091584 -0.44780296 0.6760365 0.16702418 0.18205822 0.27401838
-0.32001373 0.3117617 -0.32297185 0.24164283 -0.37048742 -0.92782074 -0.9838569 -0.17522334
-0.48266387 -1.1065228 -0.21976334 0.15859278 -0.08737853 -0.45533693 0.53748286 -0.063680016
0.24294904 -0.5053239 0.5296331 -0.26975933 0.14398848 0.17049056 -0.13981543 0.10373785
0.02126649 0.6462731 0.12288407 0.5143519 -0.17020898 0.14400066 -0.114946306 0.15302753
-0.6667947 -0.1620582 -0.53209543 -1.9512584 0.015265201 0.07065278 0.132137 -0.8762888
-0.09649963 -0.4681193 -0.16373007 -0.51613206 0.0050053718 -0.62362605 -0.50509495 0.13961704
-0.8487148 0.35380116 0.12978865 -0.6016996 0.13210148 -0.1904034 0.4838396 -0.08769965
-0.028617065 0.13575241 -0.51512676 0.17588046 -0.49393412 0.18159895 0.5848398 0.22057392
0.15989143 0.027060734 0.43236306 -0.13285016 0.010609347 -0.6371365 0.0951543 -0.28174317
0.5453452 -0.4182358 -0.30321452 0.4116518 0.016988005 0.1012274 0.17623466 -0.11989114
-0.9589116 -0.48598996 0.13592874 -0.17017175 0.26330122 -2.3077672 -0.47262892 -0.18858764
-0.5693006 -0.7852096 -0.32050544 0.2106335 -0.123908214 0.2922389 -0.22148257 -0.6206689
0.28666183 -0.109985135 0.13330008 -0.16968527 -0.5615182 -0.4385659 0.011367918 0.13053703
-0.28143737 -0.6249279 -0.15860812 0.5455536 -0.19195864 -0.4876298 -0.64760715 0.47783077
-0.072738335 0.26308954 -0.436599 -0.14534935 -0.32925212 -0.6194732 -0.27229074 0.27305645
00000000: c4bc d93a 255c f9bc 3f9f 8f3e caee 183b
00000010: 2aa8 43bf 7d3b 233e 2093 933d 8116 133e
00000020: 5aae 8ebe a588 f03d 5cd8 d93d c49b 0bbf
00000030: 809f 0fbf 6214 c0bd c88c f0bd 9908 c2bc
00000040: dee3 2fbc d2f4 033d 40dc b9bc ebef 8f3d
00000050: 0ec9 3fbe e8cd b9be 6758 f7be 2680 43be
00000060: 80cb cabc 50e1 2d3e e587 1cbd 0655 b2bd
00000070: f4a5 80be ae3a cfbb 8e6c 8a3e 448c 55bd
00000080: e0ea 453d fd63 a2be 6d6e 61be 0607 bcbe
00000090: aadb 7ebe a126 013d 84cd 603e ee8c 3fbe
000000a0: bbaa 40be 4a25 b6bd 3510 debe 7f4d f0be
000000b0: dd98 2bbd 9844 823e 56f1 afbe 3e27 d43e
000000c0: d538 4cbe 6c46 dc3d 778c 233d bb1b b53d
000000d0: 1025 3cbd dac0 953e 60ad 02bf 3379 5d3b
000000e0: 3af4 f7bd 7e26 293e b025 ca3d 6612 afbc
000000f0: e120 1abe 20cb 903e 4010 a23d a119 1bbe
00000100: 3d72 263e 0344 4b3e 3e45 253d bd98 bebe
00000110: 6112 c83d f908 ba3d 32ea 473e d9f8 1fbf
00000120: 4981 f23c 650b 48be cc4b d13b 1fe1 e23e
00000130: dc6a aa3e 755c c43c 4ff3 39be 1cdf 813e
00000140: 4d69 af3d 4701 e3be b00e 9c3d 76e3 063d
00000150: f6ab 84be 71aa 313f bd4a 10be eb63 b0bd
00000160: 8c10 0cbf 80c9 96be 8566 75be 71e6 453d
00000170: 27cb 6e3e ec6e 55be 85e8 563d 3ab3 86bf
00000180: 5fa8 003d 2eb0 a6bd 66de f33d 1189 043e
00000190: c757 04be 11eb 6ebd 3a5a 28bf 3f70 633e
000001a0: a9b8 303e 18fc cfbd 504b 1f3d 302b 92be
000001b0: d4d2 f5bd 36d4 ad3c 06d7 a83d 22ae eebd
000001c0: 67d2 dabe 6dd6 2b3e 5e16 22bd 9e5b 833d
000001d0: ac17 b23c e285 453d b578 75bd e3ca 5e3d
000001e0: 7050 6a3e e6f3 d63d d8e0 0dbe e3b4 12be
000001f0: 5087 eabd 9020 a9ba d673 7b3e 4bf9 12be
00000200: a04d c53d c6ae d8bd 367d d1be 6e46 e5be
00000210: ba10 2d3f 6308 2b3e 786d 3a3e 234c 8c3e
00000220: d7d8 a3be 3b9f 9f3e 915c a5be 3871 773e
00000230: 87b0 bdbe a985 6dbf 0cde 7bbf bf6d 33be
00000240: b81f f7be 8aa2 8dbf a409 61be 2566 223e
00000250: 84f3 b2bd ec21 e9be 7a98 093f ab6a 82bd
00000260: a2c7 783e e85c 01bf 0996 073f e51d 8abe
00000270: b771 133e 1495 2e3e c72b 0fbe 8374 d43d
00000280: 1037 ae3c 2772 253f a5aa fb3d 91ac 033f
00000290: 434b 2ebe e974 133e f868 ebbd 40b3 1c3e
000002a0: 0fb3 2abf 96f2 25be 6837 08bf d6c2 f9bf
000002b0: e51a 7a3c 68b2 903d ec4e 073e 7654 60bf
000002c0: 99a1 c5bd 55ad efbe dba8 27be 3b21 04bf
000002d0: 1a04 a43b f5a5 1fbf e74d 01bf c5f7 0e3e
000002e0: 6045 59bf 6d25 b53e 51e7 043e fc08 1abf
000002f0: 9c45 073e 1cf9 42be d3b9 f73e e09b b3bd
00000300: 566e eabc ae02 0b3e 59df 03bf 021a 343e
00000310: efe4 fcbe 13f5 393e 10b8 153f 21de 613e
00000320: 94ba 233e 79ae dd3c b15e dd3e df09 08be
00000330: d4d2 2d3c 611b 23bf 42e0 c23d a440 90be
00000340: be9b 0b3f 0123 d6be ef3e 9bbe 06c4 d23e
00000350: 6e2a 8b3c 5050 cf3d dc76 343e 7c89 f5bd
00000360: 3b7b 75bf add3 f8be e730 0b3e 8141 2ebe
00000370: 6bcf 863e 75b2 13c0 6bfc f1be 1e1d 41be
00000380: afbd 11bf 7f03 49bf 4a19 a4be 4fb0 573e
00000390: 97c3 fdbd 56a0 953e 54cc 62be 28e4 1ebf
000003a0: 57c5 923e e33f e1bd d17f 083e fac1 2dbe
000003b0: a8bf 0fbf b68b e0be 8140 3a3c 80ab 053e
000003c0: 8f18 90be 46fb 1fbf 2b6a 22be 67a9 0b3f
000003d0: ce90 44be 9daa f9be 95c9 25bf 3ca6 f43e
000003e0: d6f7 94bd acb3 863e e789 dfbe 76d6 14be
000003f0: bc93 a8be cc95 1ebf b169 8bbe 0ece 8b3e
