tf_lite_quant_model.tflite (tflite, 103984 bytes, 4 tensors)

dense_11/bias f4 [10]
0	0xbddeb5ac	-0.10874495
1	0xbeabf3f7	-0.33584568
2	0x3e3839ed	0.17990847
3	0x3eb5fbdb	0.35543713
4	0xbeb8d2bd	-0.3609828
5	0x3de9e0d1	0.114198335
6	0x3e59c180	0.2126522
7	0x3e3eac09	0.18620314
8	0xbe2908ef	-0.16507314
9	0xbef9293f	-0.4866428

dense_10/bias f4 [128]
0	0x3e4b19da	0.1983408
1	0xbc73ad64	-0.0148728825
2	0x3c496a7d	0.012293455
3	0x3e9ed8be	0.31024736
4	0x3dd7c41a	0.1053545
5	0x3ef2f9fe	0.47456354
6	0x3f0599be	0.52187717
7	0x3eabeab6	0.33577508
8	0x3f0d48f8	0.55189466
9	0x3da06543	0.07831814
10	0x3c0a0c8a	0.008425841
11	0xbd460346	-0.048342966
12	0x3e6eaa4c	0.2330715
13	0x3e9965ee	0.2996058
14	0x3e91d8e7	0.28485796
15	0x3ed70a3a	0.4199999
16	0x3f0841d3	0.5322544
17	0x3f323aae	0.6962079
18	0x3e3da2a2	0.1851907
19	0x3f1e7a3b	0.6190526
20	0xbeb5e3d1	-0.35525373
21	0x3ed4f404	0.4159242
22	0x3e1bf1fe	0.15229031
23	0xbe656d68	-0.22405016
24	0x3f13bdd9	0.5771156
25	0x3efb4265	0.49074093
26	0x3f30ecba	0.69111216
27	0xbdaf98fd	-0.08574102
28	0x3f28da7f	0.659584
29	0x3f2a287f	0.6646804
30	0xbcca5613	-0.024699247
31	0xbe890478	-0.26761222
32	0xbf117acd	-0.56828004
33	0xbd3797a9	-0.04482237
34	0xbd77506e	-0.060379438
35	0x3e884670	0.2661624
36	0x3eafd882	0.3434487
37	0x3f04565c	0.51694274
38	0x3d5dcac6	0.054148458
39	0x3e1fc8e9	0.15603985
40	0x3e723a28	0.23654997
41	0x3ed3c74e	0.41362995
42	0x3ee412e4	0.44545662
43	0x3e59a2d8	0.21253526
44	0x3e1b5928	0.15170729
45	0xbe73f47c	-0.23823732
46	0x3f7e89b6	0.9942888
47	0x3ec432d1	0.3832002
48	0x3e7838c1	0.242404
49	0xbc8c06cf	-0.01709309
50	0xbca7a1fe	-0.020462986
51	0xbe7db4ef	-0.24776052
52	0x3c5440ce	0.012954904
53	0x3e6bc432	0.23024061
54	0x3e6e41fd	0.2326736
55	0xbea967cc	-0.33087003
56	0x3cc94fab	0.024574121
57	0x3e76612d	0.24060507
58	0x3c0b0f14	0.008487482
59	0x3dea9668	0.11454469
60	0x3dff1f90	0.12457192
61	0x3e493edf	0.1965289
62	0x3f1c5de5	0.6108077
63	0x3d6588cf	0.056038674
64	0x3e5a4352	0.21314743
65	0x3c2e8194	0.010651011
66	0x3bffd48d	0.0078073204
67	0x3e4e6349	0.20155062
68	0xbf011cd2	-0.504346
69	0x3da3552a	0.07975228
70	0xba8b80ce	-0.0010643245
71	0x3e8fbb1c	0.2807244
72	0xbca3c5c2	-0.01999176
73	0x3ec7b9ce	0.39008945
74	0x3eba699f	0.36408707
75	0xbc64003e	-0.013916073
76	0x3df2b2ff	0.11850547
77	0x3ecd1ee8	0.40062642
78	0x3ee7c845	0.4526998
79	0x3e620279	0.22071256
80	0x3e3731f9	0.17890157
81	0x3e3a866e	0.18215343
82	0xbc86f278	-0.01647304
83	0xbc527db7	-0.012847356
84	0x3de1fb32	0.1103424
85	0xbc128ae5	-0.008944248
86	0xbea4b2e5	-0.32167736
87	0x3efb0e58	0.4903438
88	0x3ec3237d	0.38113013
89	0x3e8d8ce9	0.27646568
90	0x3e81b22f	0.25331256
91	0x3eb1a05d	0.3469266
92	0x3e8137be	0.2523784
93	0xbeed7836	-0.46380776
94	0x3f3ca67d	0.7369154
95	0x3f134a07	0.5753483
96	0x3ec08484	0.376011
97	0xbef2203f	-0.47290227
98	0x3e277fc2	0.1635733
99	0x3f090c26	0.5353416
100	0x3e3ceb92	0.18449238
101	0x3eb2db97	0.3493316
102	0x3f03c221	0.5146809
103	0x3e9c9eb5	0.30589834
104	0x3ee0155a	0.4376629
105	0x3f06a2c8	0.52592134
106	0x3e9ab755	0.30217996
107	0xbe7d89e6	-0.24759635
108	0x3f1448dc	0.57923675
109	0x3e9a59ba	0.3014658
110	0x3f56384f	0.8367967
111	0xbeb85a2b	-0.36006293
112	0xbeacfc50	-0.3378625
113	0xbda924ef	-0.08258998
114	0x3f1e51bb	0.6184346
115	0xbd189b5c	-0.037257537
116	0x3ecb4768	0.39702916
117	0x3ece8023	0.40332136
118	0x3e19f9c1	0.1503668
119	0xbe82b19e	-0.25526136
120	0x3d83f252	0.06442703
121	0x3eb93eda	0.36180764
122	0x3eee70e4	0.46570504
123	0x3ef5729b	0.47939
124	0xbd6ab48d	-0.057301093
125	0x3f1246d4	0.57139325
126	0x3dc310b9	0.09524674
127	0x3ea5b9cf	0.32368323

sequential_5/dense_10/MatMul i1 [128, 784] scale=0.012188641 zero_point=0
0	0xf4	-0.14626369
1	0x05	0.06094321
2	0x1f	0.37784788
3	0x26	0.46316838
4	0xfb	-0.06094321
5	0x13	0.23158419
6	0x09	0.109697774
7	0xce	-0.60943204
8	0xdb	-0.45097974
9	0xce	-0.60943204
10	0xcc	-0.6338093
11	0xdf	-0.40222517
12	0x0f	0.18282962
13	0xd7	-0.49973428
14	0xd5	-0.52411157
15	0xea	-0.26815012
16	0xe6	-0.31690466
17	0xd3	-0.54848886
18	0xce	-0.60943204
19	0xb5	-0.9141481
20	0xbb	-0.84101623
21	0xe3	-0.3534706
22	0x0a	0.12188642
23	0x17	0.28033876
24	0x2f	0.57286614
25	0x0d	0.15845233
26	0xf7	-0.109697774
27	0x12	0.21939555
28	0x13	0.23158419
29	0x02	0.024377283
30	0x12	0.21939555
31	0x1d	0.3534706
32	0x0c	0.14626369
33	0x18	0.29252738
34	0x1b	0.3290933
35	0x09	0.109697774
36	0xcf	-0.5972434
37	0xe7	-0.30471602
38	0xdc	-0.4387911
39	0xcb	-0.645998
40	0xee	-0.21939555
41	0xfa	-0.073131844
42	0xf1	-0.18282962
43	0xed	-0.23158419
44	0xc6	-0.7069412
45	0xbf	-0.79226166
46	0xcc	-0.6338093
47	0xc9	-0.6703753
48	0xd8	-0.48754567
49	0xf6	-0.12188642
50	0x23	0.42660245
51	0x04	0.048754565
52	0x1b	0.3290933
53	0x22	0.4144138
54	0x05	0.06094321
55	0x06	0.073131844
56	0xf9	-0.08532049
57	0xe8	-0.29252738
58	0xfd	-0.036565922
59	0x23	0.42660245
60	0x15	0.25596148
61	0x1b	0.3290933
62	0x14	0.24377283
63	0x03	0.036565922
64	0x04	0.048754565
65	0x09	0.109697774
66	0xfd	-0.036565922
67	0xd0	-0.58505476
68	0xe7	-0.30471602
69	0x1d	0.3534706
70	0x1f	0.37784788
71	0x0a	0.12188642
72	0xcf	-0.5972434
73	0xee	-0.21939555
74	0xea	-0.26815012
75	0xf7	-0.109697774
76	0x00	0.0
77	0x16	0.26815012
78	0x1a	0.31690466
79	0x1f	0.37784788
80	0x35	0.645998
81	0x0b	0.13407506
82	0x17	0.28033876
83	0xfa	-0.073131844
84	0xe8	-0.29252738
85	0xf2	-0.17064098
86	0x07	0.08532049
87	0x32	0.60943204
88	0x05	0.06094321
89	0x0b	0.13407506
90	0x05	0.06094321
91	0x09	0.109697774
92	0x18	0.29252738
93	0x0e	0.17064098
94	0x16	0.26815012
95	0xff	-0.012188641
96	0xcf	-0.5972434
97	0x0c	0.14626369
98	0x22	0.4144138
99	0xe1	-0.37784788
100	0xe5	-0.3290933
101	0xeb	-0.25596148
102	0xf9	-0.08532049
103	0x01	0.012188641
104	0xf1	-0.18282962
105	0xf7	-0.109697774
106	0x04	0.048754565
107	0x22	0.4144138
108	0x30	0.58505476
109	0x0f	0.18282962
110	0x09	0.109697774
111	0xfd	-0.036565922
112	0xd9	-0.47535703
113	0xfa	-0.073131844
114	0xf9	-0.08532049
115	0x1d	0.3534706
116	0x19	0.30471602
117	0x10	0.19501826
118	0x05	0.06094321
119	0x18	0.29252738
120	0xf4	-0.14626369
121	0xf5	-0.13407506
122	0x02	0.024377283
123	0xfb	-0.06094321
124	0x0f	0.18282962
125	0x12	0.21939555
126	0x06	0.073131844
127	0xf7	-0.109697774
128	0xe7	-0.30471602
129	0xde	-0.4144138
130	0xd8	-0.48754567
131	0xf1	-0.18282962
132	0xf9	-0.08532049
133	0x0f	0.18282962
134	0x0c	0.14626369
135	0x1c	0.34128195
136	0x0d	0.15845233
137	0xfe	-0.024377283
138	0x02	0.024377283
139	0xed	-0.23158419
140	0xe8	-0.29252738
141	0xe3	-0.3534706
142	0xfa	-0.073131844
143	0x10	0.19501826
144	0x04	0.048754565
145	0x0e	0.17064098
146	0x08	0.09750913
147	0xf0	-0.19501826
148	0xf5	-0.13407506
149	0xf5	-0.13407506
150	0xe7	-0.30471602
151	0xf4	-0.14626369
152	0xfe	-0.024377283
153	0x08	0.09750913
154	0xfe	-0.024377283
155	0xf3	-0.15845233
156	0xed	-0.23158419
157	0xe9	-0.28033876
158	0xd8	-0.48754567
159	0xe0	-0.39003652
160	0xfb	-0.06094321
161	0x05	0.06094321
162	0x1e	0.36565924
163	0x0e	0.17064098
164	0x0d	0.15845233
165	0x0a	0.12188642
166	0xe2	-0.36565924
167	0xf7	-0.109697774
168	0xe9	-0.28033876
169	0xd5	-0.52411157
170	0x07	0.08532049
171	0x05	0.06094321
172	0xf7	-0.109697774
173	0x15	0.25596148
174	0x06	0.073131844
175	0xe8	-0.29252738
176	0xed	-0.23158419
177	0xf7	-0.109697774
178	0xec	-0.24377283
179	0xf3	-0.15845233
180	0xe5	-0.3290933
181	0x05	0.06094321
182	0xf5	-0.13407506
183	0xee	-0.21939555
184	0x00	0.0
185	0xec	-0.24377283
186	0xe4	-0.34128195
187	0xdf	-0.40222517
188	0xfc	-0.048754565
189	0x0c	0.14626369
190	0x16	0.26815012
191	0x12	0.21939555
192	0x0e	0.17064098
193	0xfd	-0.036565922
194	0xd4	-0.53630024
195	0xdd	-0.42660245
196	0xd4	-0.53630024
197	0xdc	-0.4387911
198	0x08	0.09750913
199	0x04	0.048754565
200	0xeb	-0.25596148
201	0x13	0.23158419
202	0xfc	-0.048754565
203	0xe2	-0.36565924
204	0xe5	-0.3290933
205	0xf7	-0.109697774
206	0xf0	-0.19501826
207	0xfe	-0.024377283
208	0xf7	-0.109697774
209	0x0e	0.17064098
210	0x15	0.25596148
211	0xff	-0.012188641
212	0xf6	-0.12188642
213	0xf9	-0.08532049
214	0xeb	-0.25596148
215	0xe3	-0.3534706
216	0xee	-0.21939555
217	0x06	0.073131844
218	0x05	0.06094321
219	0xf5	-0.13407506
220	0xeb	-0.25596148
221	0xf1	-0.18282962
222	0x05	0.06094321
223	0xf1	-0.18282962
224	0xc9	-0.6703753
225	0xcd	-0.6216207
226	0xf9	-0.08532049
227	0xfd	-0.036565922
228	0xf0	-0.19501826
229	0x09	0.109697774
230	0x06	0.073131844
231	0xfd	-0.036565922
232	0xf8	-0.09750913
233	0xec	-0.24377283
234	0xef	-0.2072069
235	0x04	0.048754565
236	0x0e	0.17064098
237	0x23	0.42660245
238	0x1f	0.37784788
239	0x14	0.24377283
240	0x04	0.048754565
241	0xef	-0.2072069
242	0xf3	-0.15845233
243	0xf3	-0.15845233
244	0xf7	-0.109697774
245	0x00	0.0
246	0xf6	-0.12188642
247	0xec	-0.24377283
248	0xf7	-0.109697774
249	0x01	0.012188641
250	0x00	0.0
251	0xfe	-0.024377283
252	0xe0	-0.39003652
253	0xd8	-0.48754567
254	0x0f	0.18282962
255	0x01	0.012188641

sequential_5/dense_11/MatMul i1 [10, 128] scale=0.014335673 zero_point=0
0	0x20	0.45874155
1	0x04	0.057342693
2	0xf1	-0.2150351
3	0xf8	-0.11468539
4	0x0c	0.17202808
5	0x07	0.10034971
6	0xd8	-0.57342696
7	0x04	0.057342693
8	0xed	-0.2723778
9	0x0b	0.1576924
10	0x0e	0.20069942
11	0xdb	-0.5304199
12	0x04	0.057342693
13	0x08	0.11468539
14	0xf0	-0.22937077
15	0x07	0.10034971
16	0x08	0.11468539
17	0xe2	-0.4300702
18	0x02	0.028671347
19	0xdf	-0.4730772
20	0x06	0.08601404
21	0xf3	-0.18636376
22	0x05	0.07167837
23	0x06	0.08601404
24	0x0d	0.18636376
25	0xf9	-0.10034971
26	0xf4	-0.17202808
27	0xfb	-0.07167837
28	0x07	0.10034971
29	0xf2	-0.20069942
30	0xff	-0.014335673
31	0xfd	-0.04300702
32	0x10	0.22937077
33	0xf8	-0.11468539
34	0x04	0.057342693
35	0x02	0.028671347
36	0x01	0.014335673
37	0xf8	-0.11468539
38	0xfb	-0.07167837
39	0xdd	-0.50174856
40	0x01	0.014335673
41	0x09	0.12902106
42	0x0f	0.2150351
43	0xf2	-0.20069942
44	0xfb	-0.07167837
45	0xee	-0.25804213
46	0xf7	-0.12902106
47	0x04	0.057342693
48	0x01	0.014335673
49	0x03	0.04300702
50	0xf9	-0.10034971
51	0x04	0.057342693
52	0x07	0.10034971
53	0x06	0.08601404
54	0xe2	-0.4300702
55	0xf9	-0.10034971
56	0xe6	-0.3727275
57	0x08	0.11468539
58	0xfc	-0.057342693
59	0x07	0.10034971
60	0x03	0.04300702
61	0xe4	-0.40139884
62	0xf6	-0.14335674
63	0x12	0.25804213
64	0xf7	-0.12902106
65	0x03	0.04300702
66	0x01	0.014335673
67	0xfc	-0.057342693
68	0xf1	-0.2150351
69	0xde	-0.4874129
70	0xfa	-0.08601404
71	0xf5	-0.1576924
72	0xe3	-0.41573453
73	0x09	0.12902106
74	0xeb	-0.30104914
75	0x0c	0.17202808
76	0xe9	-0.3297205
77	0xc4	-0.8601404
78	0x29	0.5877626
79	0x02	0.028671347
80	0xf9	-0.10034971
81	0x08	0.11468539
82	0xfd	-0.04300702
83	0xfd	-0.04300702
84	0x0e	0.20069942
85	0xf4	-0.17202808
86	0x07	0.10034971
87	0xa9	-1.2472036
88	0x14	0.28671348
89	0xe3	-0.41573453
90	0x08	0.11468539
91	0xf2	-0.20069942
92	0xef	-0.24370645
93	0xf2	-0.20069942
94	0xe7	-0.35839182
95	0x0d	0.18636376
96	0x1c	0.40139884
97	0xf8	-0.11468539
98	0xe0	-0.45874155
99	0x15	0.30104914
100	0xe1	-0.44440588
101	0xfe	-0.028671347
102	0xf9	-0.10034971
103	0xf5	-0.1576924
104	0xea	-0.3153848
105	0x10	0.22937077
106	0x0c	0.17202808
107	0x0a	0.14335674
108	0x0d	0.18636376
109	0xe4	-0.40139884
110	0x0c	0.17202808
111	0x01	0.014335673
112	0x02	0.028671347
113	0x09	0.12902106
114	0x16	0.3153848
115	0x01	0.014335673
116	0x00	0.0
117	0xfc	-0.057342693
118	0xf4	-0.17202808
119	0x0d	0.18636376
120	0xe5	-0.38706318
121	0x02	0.028671347
122	0xea	-0.3153848
123	0xf3	-0.18636376
124	0x0c	0.17202808
125	0xe8	-0.34405616
126	0x03	0.04300702
127	0xf5	-0.1576924
128	0x95	-1.5339171
129	0xf4	-0.17202808
130	0xf1	-0.2150351
131	0xe9	-0.3297205
132	0xe5	-0.38706318
133	0x00	0.0
134	0xf4	-0.17202808
135	0xef	-0.24370645
136	0xce	-0.71678364
137	0x15	0.30104914
138	0xf8	-0.11468539
139	0xf5	-0.1576924
140	0x24	0.51608425
141	0x1f	0.44440588
142	0x0b	0.1576924
143	0xf0	-0.22937077
144	0xe3	-0.41573453
145	0x0b	0.1576924
146	0xd0	-0.6881123
147	0xf7	-0.12902106
148	0x05	0.07167837
149	0xce	-0.71678364
150	0x19	0.35839182
151	0x28	0.57342696
152	0xf6	-0.14335674
153	0xe5	-0.38706318
154	0xe1	-0.44440588
155	0x2d	0.6451053
156	0xf6	-0.14335674
157	0x13	0.2723778
158	0xd7	-0.5877626
159	0xe9	-0.3297205
160	0x1c	0.40139884
161	0xf7	-0.12902106
162	0xde	-0.4874129
163	0xea	-0.3153848
164	0x0a	0.14335674
165	0xe1	-0.44440588
166	0xe9	-0.3297205
167	0x1d	0.41573453
168	0xe4	-0.40139884
169	0xc9	-0.78846204
170	0x05	0.07167837
171	0xdb	-0.5304199
172	0xf5	-0.1576924
173	0xff	-0.014335673
174	0x01	0.014335673
175	0xfd	-0.04300702
176	0x0c	0.17202808
177	0xff	-0.014335673
178	0xf5	-0.1576924
179	0xf5	-0.1576924
180	0x10	0.22937077
181	0x0a	0.14335674
182	0xc7	-0.81713337
183	0x0a	0.14335674
184	0x41	0.9318188
185	0xed	-0.2723778
186	0xed	-0.2723778
187	0xf0	-0.22937077
188	0xec	-0.28671348
189	0xf7	-0.12902106
190	0xea	-0.3153848
191	0x02	0.028671347
192	0xaa	-1.232868
193	0xdf	-0.4730772
194	0x1c	0.40139884
195	0xd8	-0.57342696
196	0xe8	-0.34405616
197	0xef	-0.24370645
198	0xf9	-0.10034971
199	0x0c	0.17202808
200	0xef	-0.24370645
201	0x0c	0.17202808
202	0x09	0.12902106
203	0xf4	-0.17202808
204	0x0f	0.2150351
205	0x0f	0.2150351
206	0xd0	-0.6881123
207	0xe7	-0.35839182
208	0x2e	0.659441
209	0xf3	-0.18636376
210	0x09	0.12902106
211	0xf7	-0.12902106
212	0xdf	-0.4730772
213	0xff	-0.014335673
214	0x0c	0.17202808
215	0xb4	-1.0895112
216	0xe0	-0.45874155
217	0xdd	-0.50174856
218	0xea	-0.3153848
219	0x0f	0.2150351
220	0xca	-0.77412635
221	0x15	0.30104914
222	0x08	0.11468539
223	0xe4	-0.40139884
224	0xdc	-0.51608425
225	0xe2	-0.4300702
226	0x2f	0.6737766
227	0xd6	-0.6020983
228	0xfd	-0.04300702
229	0xe5	-0.38706318
230	0xf1	-0.2150351
231	0xf1	-0.2150351
232	0x0b	0.1576924
233	0xce	-0.71678364
234	0xe2	-0.4300702
235	0x14	0.28671348
236	0xe6	-0.3727275
237	0xec	-0.28671348
238	0x07	0.10034971
239	0xfe	-0.028671347
240	0x01	0.014335673
241	0xd5	-0.616434
242	0x04	0.057342693
243	0xf2	-0.20069942
244	0x0b	0.1576924
245	0xfd	-0.04300702
246	0x9a	-1.4622387
247	0x19	0.35839182
248	0xe9	-0.3297205
249	0x1c	0.40139884
250	0xf1	-0.2150351
251	0xee	-0.25804213
252	0xd7	-0.5877626
253	0xe1	-0.44440588
254	0x2a	0.6020983
255	0xc9	-0.78846204
