tf_lite_quant_model.tflite (tflite, 103968 bytes, 4 tensors)

dense_5/bias f4 [10]
0	0xbd13d34b	-0.036090177
1	0xbebfe4c3	-0.3747922
2	0x3e47f9d3	0.19528894
3	0x3e9ab745	0.3021795
4	0xbe9b9fb1	-0.30395272
5	0x3d9163d6	0.0709912
6	0x3df068c6	0.11738734
7	0x3e4aa459	0.19789256
8	0xbdd4fd85	-0.103999175
9	0xbeebef9f	-0.46081254

dense_4/bias f4 [128]
0	0x3e162238	0.14661491
1	0xbd04038c	-0.032229945
2	0x3de04e2d	0.10952411
3	0xbe5846ac	-0.21120709
4	0x3f2ab901	0.66688544
5	0x3e210e47	0.15728103
6	0x3e7cd68e	0.24691221
7	0xbdba48eb	-0.09095939
8	0xbe1fe66f	-0.15615247
9	0x3ee1dd02	0.44113928
10	0x3f21a458	0.63141394
11	0xbcd7a826	-0.026325297
12	0xbc522251	-0.0128255645
13	0xbe0574e8	-0.13032877
14	0x3f0422fe	0.51615894
15	0x3e98a7ff	0.2981567
16	0xbc484991	-0.012224571
17	0x3ee8a230	0.4543624
18	0xbec93455	-0.3929774
19	0x3f1a8460	0.6035824
20	0x3e90eb87	0.28304693
21	0x3e949886	0.29022616
22	0xbdd4fee7	-0.10400181
23	0xbded718a	-0.115939215
24	0x3ed4e14b	0.41578135
25	0x3e632824	0.22183281
26	0x3dbae76a	0.0912617
27	0x3d62817f	0.05529928
28	0x3f02dd97	0.5111937
29	0x3ea633d9	0.32461432
30	0x3e57528e	0.21027586
31	0x3f0acb4d	0.5421646
32	0x3f0a868f	0.5411157
33	0xbca310b5	-0.019905427
34	0x3ebdb4a8	0.37051892
35	0x3eb79ace	0.35860294
36	0x3e582b61	0.21110298
37	0x3f0b2cd8	0.543653
38	0xbe8cfd00	-0.27536774
39	0xbcac82a8	-0.021058396
40	0x3e8cc132	0.27491146
41	0x3ea89d57	0.3293254
42	0x3e48a5fc	0.19594568
43	0x3e7a294a	0.24429813
44	0xbef239fb	-0.4730986
45	0xbca8a4b4	-0.02058635
46	0x3e899bf9	0.2687681
47	0xbdbb02b8	-0.09131378
48	0x3ee5cd19	0.4488304
49	0xbe0ccd4f	-0.13750194
50	0xbed375d9	-0.41300848
51	0x3f11dc19	0.5697647
52	0x3e7d62eb	0.24744765
53	0xbf017706	-0.5057224
54	0xbde26112	-0.11053671
55	0x3eefd09d	0.46838847
56	0x3da7ec4f	0.08199369
57	0x3ddba4f8	0.10724825
58	0x3e76550e	0.24055883
59	0x3e832e97	0.25621483
60	0x3f4ad016	0.79223764
61	0x3f2a254f	0.6646318
62	0x3eb9f733	0.3632141
63	0xbc62c5db	-0.013841118
64	0x3ec4d005	0.38439956
65	0x3ea55232	0.32289273
66	0xbce85ca4	-0.028364487
67	0x3df6312c	0.120210975
68	0x3ec7d7a4	0.39031708
69	0xbdfa1fd4	-0.12213102
70	0x3f28577e	0.657585
71	0x3e4087e5	0.1880184
72	0x3ee41049	0.44543675
73	0x3e4845dd	0.195579
74	0x3ea4568d	0.32097283
75	0xbe32e581	-0.17470361
76	0xbc942715	-0.018085042
77	0x3f497f1c	0.7870958
78	0x3ecb698e	0.3972897
79	0xbbcc4ff2	-0.006235116
80	0x3eed8371	0.46389344
81	0xbd66296c	-0.056191847
82	0x3ec682aa	0.38771564
83	0x3e680754	0.22659045
84	0xbe2e8116	-0.1704143
85	0xbc73dae4	-0.014883731
86	0x3eaeb621	0.34123328
87	0x3d9c4659	0.07630605
88	0x3e17a4a6	0.14808902
89	0x3ea1d8d9	0.31610754
90	0xbed41c1f	-0.41427705
91	0x3e4c44f7	0.19948183
92	0xbeaefa93	-0.34175548
93	0x3ea6930f	0.32534072
94	0x3ed9d2e8	0.4254372
95	0xbb9024ca	-0.004398917
96	0x3e001afa	0.1251029
97	0x3d240f96	0.040053926
98	0x3f044eca	0.5168272
99	0x3e9687ac	0.29400384
100	0x3ebe041b	0.37112507
101	0x3d96cb45	0.07362989
102	0x3e99b7a1	0.3002291
103	0x3f412300	0.7544403
104	0x3d183fbc	0.037170157
105	0x3dcd7a01	0.10033036
106	0x3e06e160	0.13171911
107	0x3e256718	0.16152608
108	0x3e098380	0.1342907
109	0x3d12c188	0.035829097
110	0x3e1556de	0.14583918
111	0x3f3f2714	0.74669003
112	0x3e1c3956	0.15256247
113	0x3ece25d2	0.4026323
114	0x3efd7f3a	0.4951113
115	0x3e4c040c	0.19923419
116	0x3e2efae9	0.17087902
117	0xbd60bbd8	-0.05486664
118	0x3e8c5f60	0.27416515
119	0x3eb3642b	0.3503736
120	0x3db62eaa	0.08895619
121	0xbec72a45	-0.38899437
122	0x3eb3d615	0.3512427
123	0x3f35adee	0.7096852
124	0x3f545535	0.82942516
125	0x3d293b20	0.04131615
126	0x3e2900c9	0.16504206
127	0x3ed9c7e3	0.42535314

sequential_2/dense_4/MatMul i1 [128, 784] scale=0.012555732 zero_point=0
0	0x05	0.06277866
1	0x06	0.07533439
2	0xfd	-0.037667196
3	0x01	0.012555732
4	0x00	0.0
5	0x01	0.012555732
6	0x01	0.012555732
7	0xfc	-0.05022293
8	0xfb	-0.06277866
9	0xfb	-0.06277866
10	0xfa	-0.07533439
11	0x03	0.037667196
12	0x04	0.05022293
13	0xfb	-0.06277866
14	0x00	0.0
15	0xf8	-0.10044586
16	0xff	-0.012555732
17	0xf7	-0.11300159
18	0xff	-0.012555732
19	0xfb	-0.06277866
20	0x06	0.07533439
21	0xfd	-0.037667196
22	0x05	0.06277866
23	0xf9	-0.087890126
24	0xfa	-0.07533439
25	0x00	0.0
26	0x00	0.0
27	0xff	-0.012555732
28	0x06	0.07533439
29	0xfd	-0.037667196
30	0xfa	-0.07533439
31	0x01	0.012555732
32	0x03	0.037667196
33	0x06	0.07533439
34	0x01	0.012555732
35	0xfe	-0.025111465
36	0x01	0.012555732
37	0x01	0.012555732
38	0xfb	-0.06277866
39	0xfb	-0.06277866
40	0xf8	-0.10044586
41	0x01	0.012555732
42	0xfb	-0.06277866
43	0x01	0.012555732
44	0xf9	-0.087890126
45	0x04	0.05022293
46	0x03	0.037667196
47	0x03	0.037667196
48	0xfc	-0.05022293
49	0xfc	-0.05022293
50	0x00	0.0
51	0x00	0.0
52	0xfc	-0.05022293
53	0x06	0.07533439
54	0x04	0.05022293
55	0xff	-0.012555732
56	0x06	0.07533439
57	0xfe	-0.025111465
58	0x06	0.07533439
59	0xfd	-0.037667196
60	0xfa	-0.07533439
61	0x04	0.05022293
62	0x01	0.012555732
63	0xfb	-0.06277866
64	0xff	-0.012555732
65	0xf8	-0.10044586
66	0x00	0.0
67	0xfb	-0.06277866
68	0xfb	-0.06277866
69	0xfc	-0.05022293
70	0xf8	-0.10044586
71	0xfc	-0.05022293
72	0xf9	-0.087890126
73	0x00	0.0
74	0x04	0.05022293
75	0xfd	-0.037667196
76	0xfb	-0.06277866
77	0xfc	-0.05022293
78	0xfe	-0.025111465
79	0xfa	-0.07533439
80	0x02	0.025111465
81	0xff	-0.012555732
82	0x00	0.0
83	0xfe	-0.025111465
84	0xfa	-0.07533439
85	0x02	0.025111465
86	0xff	-0.012555732
87	0x02	0.025111465
88	0x01	0.012555732
89	0x03	0.037667196
90	0xff	-0.012555732
91	0x04	0.05022293
92	0xff	-0.012555732
93	0xfe	-0.025111465
94	0x01	0.012555732
95	0xfe	-0.025111465
96	0x02	0.025111465
97	0xfa	-0.07533439
98	0x00	0.0
99	0xfc	-0.05022293
100	0xfb	-0.06277866
101	0xfe	-0.025111465
102	0x00	0.0
103	0xfc	-0.05022293
104	0x04	0.05022293
105	0xfe	-0.025111465
106	0x00	0.0
107	0x01	0.012555732
108	0xff	-0.012555732
109	0x00	0.0
110	0xfc	-0.05022293
111	0xfe	-0.025111465
112	0xfd	-0.037667196
113	0x04	0.05022293
114	0x02	0.025111465
115	0x02	0.025111465
116	0xfc	-0.05022293
117	0x00	0.0
118	0xfb	-0.06277866
119	0x01	0.012555732
120	0x03	0.037667196
121	0xfb	-0.06277866
122	0xfd	-0.037667196
123	0xfb	-0.06277866
124	0xfa	-0.07533439
125	0xfe	-0.025111465
126	0xff	-0.012555732
127	0xf8	-0.10044586
128	0x05	0.06277866
129	0xfd	-0.037667196
130	0x00	0.0
131	0x02	0.025111465
132	0xff	-0.012555732
133	0x03	0.037667196
134	0xfa	-0.07533439
135	0x03	0.037667196
136	0x03	0.037667196
137	0xfc	-0.05022293
138	0x01	0.012555732
139	0x04	0.05022293
140	0xfa	-0.07533439
141	0xfb	-0.06277866
142	0x06	0.07533439
143	0x00	0.0
144	0xff	-0.012555732
145	0xfc	-0.05022293
146	0x01	0.012555732
147	0x05	0.06277866
148	0xfd	-0.037667196
149	0xfe	-0.025111465
150	0xf8	-0.10044586
151	0xff	-0.012555732
152	0x00	0.0
153	0x03	0.037667196
154	0xfc	-0.05022293
155	0x01	0.012555732
156	0xfa	-0.07533439
157	0xf9	-0.087890126
158	0xfc	-0.05022293
159	0x01	0.012555732
160	0x00	0.0
161	0xfd	-0.037667196
162	0xfd	-0.037667196
163	0xfd	-0.037667196
164	0x02	0.025111465
165	0x02	0.025111465
166	0xfb	-0.06277866
167	0x01	0.012555732
168	0x02	0.025111465
169	0x03	0.037667196
170	0xfa	-0.07533439
171	0xfb	-0.06277866
172	0xfc	-0.05022293
173	0xfa	-0.07533439
174	0xfb	-0.06277866
175	0x02	0.025111465
176	0xfa	-0.07533439
177	0x02	0.025111465
178	0x00	0.0
179	0xfc	-0.05022293
180	0x02	0.025111465
181	0xff	-0.012555732
182	0xf7	-0.11300159
183	0xfb	-0.06277866
184	0xf9	-0.087890126
185	0xfa	-0.07533439
186	0xf9	-0.087890126
187	0xff	-0.012555732
188	0xf9	-0.087890126
189	0xfe	-0.025111465
190	0x03	0.037667196
191	0xfb	-0.06277866
192	0x00	0.0
193	0xfa	-0.07533439
194	0xfd	-0.037667196
195	0x04	0.05022293
196	0x04	0.05022293
197	0x07	0.087890126
198	0xfb	-0.06277866
199	0xfe	-0.025111465
200	0x03	0.037667196
201	0x05	0.06277866
202	0x01	0.012555732
203	0x01	0.012555732
204	0xfe	-0.025111465
205	0xff	-0.012555732
206	0xfa	-0.07533439
207	0xfc	-0.05022293
208	0xf8	-0.10044586
209	0xfe	-0.025111465
210	0xf8	-0.10044586
211	0xf8	-0.10044586
212	0xf7	-0.11300159
213	0x01	0.012555732
214	0x02	0.025111465
215	0xff	-0.012555732
216	0xff	-0.012555732
217	0x02	0.025111465
218	0xf8	-0.10044586
219	0x02	0.025111465
220	0x06	0.07533439
221	0x02	0.025111465
222	0xf9	-0.087890126
223	0x04	0.05022293
224	0xfc	-0.05022293
225	0xfd	-0.037667196
226	0x02	0.025111465
227	0xfc	-0.05022293
228	0xf3	-0.16322452
229	0x00	0.0
230	0xf9	-0.087890126
231	0xfd	-0.037667196
232	0xf6	-0.12555732
233	0xf6	-0.12555732
234	0xf4	-0.15066878
235	0xf4	-0.15066878
236	0xf9	-0.087890126
237	0xf8	-0.10044586
238	0xf4	-0.15066878
239	0xf2	-0.17578025
240	0xee	-0.22600318
241	0xec	-0.25111464
242	0xf0	-0.20089172
243	0x02	0.025111465
244	0xfc	-0.05022293
245	0xfd	-0.037667196
246	0xf8	-0.10044586
247	0x01	0.012555732
248	0x03	0.037667196
249	0xf9	-0.087890126
250	0xf7	-0.11300159
251	0x05	0.06277866
252	0x04	0.05022293
253	0x03	0.037667196
254	0xfb	-0.06277866
255	0x01	0.012555732

sequential_2/dense_5/MatMul i1 [10, 128] scale=0.013288198 zero_point=0
0	0x08	0.106305584
1	0xf3	-0.17274657
2	0xfc	-0.053152792
3	0x04	0.053152792
4	0x0a	0.13288198
5	0xdb	-0.49166334
6	0x09	0.119593784
7	0x04	0.053152792
8	0xe5	-0.35878134
9	0x0d	0.17274657
10	0x06	0.079729185
11	0xf7	-0.119593784
12	0xf7	-0.119593784
13	0x09	0.119593784
14	0xce	-0.6644099
15	0xed	-0.25247577
16	0xfc	-0.053152792
17	0x13	0.25247577
18	0xfc	-0.053152792
19	0x0c	0.15945837
20	0xff	-0.013288198
21	0xfc	-0.053152792
22	0x14	0.26576397
23	0x03	0.039864592
24	0xd4	-0.58468074
25	0xdd	-0.46508694
26	0x10	0.21261117
27	0x0a	0.13288198
28	0x03	0.039864592
29	0xe8	-0.31891674
30	0xff	-0.013288198
31	0xe9	-0.30562857
32	0x09	0.119593784
33	0x04	0.053152792
34	0x27	0.51823974
35	0xef	-0.22589937
36	0xf9	-0.093017384
37	0x0a	0.13288198
38	0xfc	-0.053152792
39	0x03	0.039864592
40	0xd7	-0.54481614
41	0xf1	-0.19932297
42	0xf4	-0.15945837
43	0x25	0.49166334
44	0xf3	-0.17274657
45	0x00	0.0
46	0x02	0.026576396
47	0xfc	-0.053152792
48	0xf0	-0.21261117
49	0xf7	-0.119593784
50	0x0a	0.13288198
51	0x0b	0.14617018
52	0x0a	0.13288198
53	0x16	0.29234037
54	0x12	0.23918757
55	0x16	0.29234037
56	0x05	0.06644099
57	0x05	0.06644099
58	0xfa	-0.079729185
59	0xef	-0.22589937
60	0x0a	0.13288198
61	0xe7	-0.33220494
62	0xfa	-0.079729185
63	0x06	0.079729185
64	0xc1	-0.8371565
65	0x18	0.31891674
66	0xfc	-0.053152792
67	0xf2	-0.18603477
68	0xfa	-0.079729185
69	0x00	0.0
70	0xec	-0.26576397
71	0x01	0.013288198
72	0x06	0.079729185
73	0xea	-0.29234037
74	0xe8	-0.31891674
75	0xff	-0.013288198
76	0xf5	-0.14617018
77	0xe9	-0.30562857
78	0xbb	-0.9168857
79	0x00	0.0
80	0x0f	0.19932297
81	0x09	0.119593784
82	0xf8	-0.106305584
83	0xe8	-0.31891674
84	0xe6	-0.34549314
85	0x03	0.039864592
86	0x0d	0.17274657
87	0xf2	-0.18603477
88	0xd2	-0.61125714
89	0x00	0.0
90	0x05	0.06644099
91	0x03	0.039864592
92	0xe8	-0.31891674
93	0xdf	-0.43851054
94	0xfe	-0.026576396
95	0xfd	-0.039864592
96	0x0a	0.13288198
97	0xfe	-0.026576396
98	0xef	-0.22589937
99	0x0b	0.14617018
100	0x07	0.093017384
101	0x07	0.093017384
102	0x07	0.093017384
103	0x09	0.119593784
104	0xfa	-0.079729185
105	0xf8	-0.106305584
106	0x0a	0.13288198
107	0xe4	-0.37206954
108	0xdb	-0.49166334
109	0xe4	-0.37206954
110	0xbd	-0.8903093
111	0x0e	0.18603477
112	0x07	0.093017384
113	0xfb	-0.06644099
114	0x09	0.119593784
115	0x01	0.013288198
116	0x0a	0.13288198
117	0xe9	-0.30562857
118	0xe1	-0.41193414
119	0xf6	-0.13288198
120	0x25	0.49166334
121	0x0e	0.18603477
122	0xf0	-0.21261117
123	0x15	0.27905217
124	0xc5	-0.7840037
125	0x09	0.119593784
126	0xf5	-0.14617018
127	0x09	0.119593784
128	0xe6	-0.34549314
129	0x05	0.06644099
130	0x1b	0.35878134
131	0x07	0.093017384
132	0x02	0.026576396
133	0xe1	-0.41193414
134	0x1e	0.39864594
135	0x09	0.119593784
136	0xb6	-0.9833267
137	0xdf	-0.43851054
138	0xd6	-0.55810434
139	0x0e	0.18603477
140	0x0d	0.17274657
141	0xf2	-0.18603477
142	0xe9	-0.30562857
143	0x98	-1.3819726
144	0x06	0.079729185
145	0xdc	-0.47837514
146	0xfc	-0.053152792
147	0xa7	-1.1826496
148	0x10	0.21261117
149	0x10	0.21261117
150	0xfe	-0.026576396
151	0x0e	0.18603477
152	0xde	-0.45179874
153	0xfa	-0.079729185
154	0xff	-0.013288198
155	0x04	0.053152792
156	0xd4	-0.58468074
157	0xfe	-0.026576396
158	0x0c	0.15945837
159	0x0b	0.14617018
160	0xe1	-0.41193414
161	0xfe	-0.026576396
162	0xe3	-0.38535774
163	0xc8	-0.7441391
164	0x08	0.106305584
165	0x09	0.119593784
166	0xe7	-0.33220494
167	0xfe	-0.026576396
168	0xea	-0.29234037
169	0xd2	-0.61125714
170	0xf6	-0.13288198
171	0xe0	-0.42522234
172	0x08	0.106305584
173	0x02	0.026576396
174	0xe4	-0.37206954
175	0x0a	0.13288198
176	0xf6	-0.13288198
177	0x13	0.25247577
178	0xf7	-0.119593784
179	0xdc	-0.47837514
180	0xf2	-0.18603477
181	0x07	0.093017384
182	0xfa	-0.079729185
183	0xda	-0.50495154
184	0xf8	-0.106305584
185	0x13	0.25247577
186	0xf8	-0.106305584
187	0xef	-0.22589937
188	0x0c	0.15945837
189	0xf7	-0.119593784
190	0xd9	-0.51823974
191	0xf6	-0.13288198
192	0xd9	-0.51823974
193	0xbe	-0.8770211
194	0x07	0.093017384
195	0xfc	-0.053152792
196	0xe1	-0.41193414
197	0x1a	0.34549314
198	0x1f	0.41193414
199	0x26	0.50495154
200	0xcc	-0.6909863
201	0x20	0.42522234
202	0xda	-0.50495154
203	0x0e	0.18603477
204	0x04	0.053152792
205	0xb0	-1.0630559
206	0xad	-1.1029204
207	0x04	0.053152792
208	0xf6	-0.13288198
209	0xf7	-0.119593784
210	0xe8	-0.31891674
211	0xe7	-0.33220494
212	0x38	0.7441391
213	0x08	0.106305584
214	0xfe	-0.026576396
215	0x19	0.33220494
216	0xc9	-0.7308509
217	0xdc	-0.47837514
218	0x19	0.33220494
219	0xf8	-0.106305584
220	0xfe	-0.026576396
221	0xe5	-0.35878134
222	0xfa	-0.079729185
223	0x2d	0.59796894
224	0xfa	-0.079729185
225	0xe3	-0.38535774
226	0xe5	-0.35878134
227	0xfb	-0.06644099
228	0xea	-0.29234037
229	0xf3	-0.17274657
230	0xe6	-0.34549314
231	0xf0	-0.21261117
232	0xfe	-0.026576396
233	0x00	0.0
234	0xff	-0.013288198
235	0x34	0.6909863
236	0x2a	0.55810434
237	0xf1	-0.19932297
238	0x1e	0.39864594
239	0xdf	-0.43851054
240	0x09	0.119593784
241	0xe3	-0.38535774
242	0x0d	0.17274657
243	0x13	0.25247577
244	0xff	-0.013288198
245	0xc6	-0.7707155
246	0xf9	-0.093017384
247	0x03	0.039864592
248	0xeb	-0.27905217
249	0x02	0.026576396
250	0x01	0.013288198
251	0xea	-0.29234037
252	0xf2	-0.18603477
253	0x15	0.27905217
254	0xed	-0.25247577
255	0xe3	-0.38535774
