tf_lite_model.tflite (tflite, 408680 bytes, 4 tensors)

dense_11/bias f4 [10]
-0.10874495 -0.33584568 0.17990847 0.35543713 -0.3609828 0.114198335 0.2126522 0.18620314
-0.16507314 -0.4866428
00000000: acb5 debd f7f3 abbe ed39 383e dbfb b53e
00000010: bdd2 b8be d1e0 e93d 80c1 593e 09ac 3e3e
00000020: ef08 29be 3f29 f9be

dense_10/bias f4 [128]
0.1983408 -0.0148728825 0.012293455 0.31024736 0.1053545 0.47456354 0.52187717 0.33577508
0.55189466 0.07831814 0.008425841 -0.048342966 0.2330715 0.2996058 0.28485796 0.4199999
0.5322544 0.6962079 0.1851907 0.6190526 -0.35525373 0.4159242 0.15229031 -0.22405016
0.5771156 0.49074093 0.69111216 -0.08574102 0.659584 0.6646804 -0.024699247 -0.26761222
-0.56828004 -0.04482237 -0.060379438 0.2661624 0.3434487 0.51694274 0.054148458 0.15603985
0.23654997 0.41362995 0.44545662 0.21253526 0.15170729 -0.23823732 0.9942888 0.3832002
0.242404 -0.01709309 -0.020462986 -0.24776052 0.012954904 0.23024061 0.2326736 -0.33087003
0.024574121 0.24060507 0.008487482 0.11454469 0.12457192 0.1965289 0.6108077 0.056038674
0.21314743 0.010651011 0.0078073204 0.20155062 -0.504346 0.07975228 -0.0010643245 0.2807244
-0.01999176 0.39008945 0.36408707 -0.013916073 0.11850547 0.40062642 0.4526998 0.22071256
0.17890157 0.18215343 -0.01647304 -0.012847356 0.1103424 -0.008944248 -0.32167736 0.4903438
0.38113013 0.27646568 0.25331256 0.3469266 0.2523784 -0.46380776 0.7369154 0.5753483
0.376011 -0.47290227 0.1635733 0.5353416 0.18449238 0.3493316 0.5146809 0.30589834
0.4376629 0.52592134 0.30217996 -0.24759635 0.57923675 0.3014658 0.8367967 -0.36006293
-0.3378625 -0.08258998 0.6184346 -0.037257537 0.39702916 0.40332136 0.1503668 -0.25526136
0.06442703 0.36180764 0.46570504 0.47939 -0.057301093 0.57139325 0.09524674 0.32368323
00000000: da19 4b3e 64ad 73bc 7d6a 493c bed8 9e3e
00000010: 1ac4 d73d fef9 f23e be99 053f b6ea ab3e
00000020: f848 0d3f 4365 a03d 8a0c 0a3c 4603 46bd
00000030: 4caa 6e3e ee65 993e e7d8 913e 3a0a d73e
00000040: d341 083f ae3a 323f a2a2 3d3e 3b7a 1e3f
00000050: d1e3 b5be 04f4 d43e fef1 1b3e 686d 65be
00000060: d9bd 133f 6542 fb3e baec 303f fd98 afbd
00000070: 7fda 283f 7f28 2a3f 1356 cabc 7804 89be
00000080: cd7a 11bf a997 37bd 6e50 77bd 7046 883e
00000090: 82d8 af3e 5c56 043f c6ca 5d3d e9c8 1f3e
000000a0: 283a 723e 4ec7 d33e e412 e43e d8a2 593e
000000b0: 2859 1b3e 7cf4 73be b689 7e3f d132 c43e
000000c0: c138 783e cf06 8cbc fea1 a7bc efb4 7dbe
000000d0: ce40 543c 32c4 6b3e fd41 6e3e cc67 a9be
000000e0: ab4f c93c 2d61 763e 140f 0b3c 6896 ea3d
000000f0: 901f ff3d df3e 493e e55d 1c3f cf88 653d
00000100: 5243 5a3e 9481 2e3c 8dd4 ff3b 4963 4e3e
00000110: d21c 01bf 2a55 a33d ce80 8bba 1cbb 8f3e
00000120: c2c5 a3bc ceb9 c73e 9f69 ba3e 3e00 64bc
00000130: ffb2 f23d e81e cd3e 45c8 e73e 7902 623e
00000140: f931 373e 6e86 3a3e 78f2 86bc b77d 52bc
00000150: 32fb e13d e58a 12bc e5b2 a4be 580e fb3e
00000160: 7d23 c33e e98c 8d3e 2fb2 813e 5da0 b13e
00000170: be37 813e 3678 edbe 7da6 3c3f 074a 133f
00000180: 8484 c03e 3f20 f2be c27f 273e 260c 093f
00000190: 92eb 3c3e 97db b23e 21c2 033f b59e 9c3e
000001a0: 5a15 e03e c8a2 063f 55b7 9a3e e689 7dbe
000001b0: dc48 143f ba59 9a3e 4f38 563f 2b5a b8be
000001c0: 50fc acbe ef24 a9bd bb51 1e3f 5c9b 18bd
000001d0: 6847 cb3e 2380 ce3e c1f9 193e 9eb1 82be
000001e0: 52f2 833d da3e b93e e470 ee3e 9b72 f53e
000001f0: 8db4 6abd d446 123f b910 c33d cfb9 a53e

sequential_5/dense_10/MatMul f4 [128, 784]
-0.14188184 0.063019894 0.3836608 0.45844406 -0.06614852 0.23322487 0.10467631 -0.6083195
-0.45310885 -0.6145495 -0.62966573 -0.40480375 0.18262585 -0.49409607 -0.5226609 -0.27422282
-0.3163526 -0.5476861 -0.6104104 -0.91751313 -0.8430448 -0.35303622 0.12625729 0.27881026
0.567151 0.15939192 -0.11337324 0.21859694 0.23640643 0.022539863 0.2213889 0.3484222
0.14062487 0.29783788 0.32652658 0.10802709 -0.5951606 -0.30432245 -0.43614563 -0.6421287
-0.21778993 -0.07349651 -0.18588218 -0.2361382 -0.70835745 -0.79446304 -0.63031083 -0.66949624
-0.48390204 -0.12088543 0.42444888 0.051463928 0.3306972 0.4142529 0.059833355 0.078187265
-0.0871851 -0.2932776 -0.03109177 0.42462513 0.25520822 0.32855022 0.24506482 0.036243446
0.04895504 0.11376051 -0.042596508 -0.58028513 -0.30363157 0.3538158 0.38093263 0.12504813
-0.59554327 -0.21871398 -0.2686892 -0.10754657 -0.004516727 0.27225873 0.3197923 0.38380823
0.6496665 0.1361187 0.28371727 -0.0681851 -0.2870911 -0.17643772 0.08570867 0.6143512
0.06562408 0.13280466 0.066158466 0.11566916 0.29509553 0.1681554 0.270136 -0.014860689
-0.5959011 0.14516869 0.41972932 -0.3761671 -0.32783654 -0.2589049 -0.08379835 0.011558369
-0.17814031 -0.10944565 0.04456324 0.4192939 0.59031045 0.17809026 0.110597454 -0.035739962
-0.47941092 -0.07304963 -0.08687097 0.35342604 0.29870695 0.19441417 0.06572235 0.28729522
-0.14925317 -0.13655072 0.02106409 -0.060086083 0.18265316 0.21665572 0.06810182 -0.111524515
-0.3090948 -0.41321987 -0.49287814 -0.18385272 -0.08035333 0.18372397 0.14688794 0.33906373
0.15948686 -0.02089978 0.019496405 -0.22679147 -0.2877789 -0.358332 -0.07646178 0.19426364
0.04566361 0.17069854 0.10248395 -0.19026491 -0.13138293 -0.13769044 -0.30651477 -0.14429073
-0.029480642 0.09910584 -0.02065132 -0.15619774 -0.23328935 -0.2782664 -0.49243882 -0.39085925
-0.061279114 0.057288524 0.36844492 0.16776551 0.15859748 0.124789044 -0.37144345 -0.1140596
-0.28200272 -0.5300163 0.082019955 0.06508534 -0.11101778 0.25661868 0.07377007 -0.29731962
-0.2293681 -0.10450835 -0.23943773 -0.15881091 -0.32672986 0.06660884 -0.12856402 -0.22279847
0.0059550055 -0.23912528 -0.33731744 -0.40098283 -0.042756077 0.14576682 0.2728944 0.2210105
0.16829586 -0.04051345 -0.53607965 -0.4296814 -0.5318791 -0.4391398 0.09480577 0.04850203
-0.258556 0.23673724 -0.043723408 -0.36365232 -0.32698435 -0.11559272 -0.18897757 -0.028725035
-0.11031401 0.1709839 0.2505698 -0.012352161 -0.120658696 -0.088673376 -0.25455993 -0.35940987
-0.22403282 0.07326615 0.058968376 -0.13521516 -0.25814787 -0.1880236 0.05765602 -0.17755719
-0.67158765 -0.61670357 -0.090796195 -0.039720744 -0.19943745 0.108119346 0.07892018 -0.033310834
-0.09950815 -0.23924682 -0.20111461 0.046185277 0.16878766 0.42164043 0.37953287 0.24258971
0.05171765 -0.21021287 -0.15968855 -0.1617976 -0.10923513 0.0020617784 -0.11730337 -0.2465236
-0.11271367 0.015369706 -0.0010394299 -0.021041797 -0.39547053 -0.4861366 0.17803599 0.014294337
00000000: 7949 11be 9310 813d 306f c43e 2eb9 ea3e
00000010: e078 87bd 80d2 6e3e 8960 d63d d4ba 1bbf
00000020: e2fd e7be 1e53 1dbf c631 21bf 7042 cfbe
00000030: 4502 3b3e 29fa fcbe 1bcd 05bf ef66 8cbe
00000040: f8f8 a1be 2835 0cbf db43 1cbf 24e2 6abf
00000050: c9d1 57bf 2ac1 b4be 9749 013e 38c0 8e3e
00000060: cf30 113f a337 233e 3b30 e8bd e0d7 5f3e
00000070: 8714 723e 85a5 b83c c6b3 623e 6564 b23e
00000080: f7ff 0f3e 357e 983e 7e2e a73e 4f3d dd3d
00000090: 725c 18bf 27d0 9bbe 7b4e dfbe 8c62 24bf
000000a0: 5304 5fbe 5785 96bd e657 3ebe 36ce 71be
000000b0: ea56 35bf ee61 4bbf 0d5c 21bf 1b64 2bbf
000000c0: 02c2 f7be c892 f7bd 5d51 d93e d7cb 523d
000000d0: 2551 a93e f518 d43e d213 753d a520 a03d
000000e0: 1a8e b2bd 7b28 96be 2bb4 febc 7768 d93e
000000f0: a7aa 823e bc37 a83e 46f2 7a3e 0274 143d
00000100: 1485 483d 45fb e83d ad79 2ebd 918d 14bf
00000110: 9975 9bbe 5827 b53e 9a09 c33e 9e0c 003e
00000120: 8675 18bf 8ff6 5fbe a191 89be 6041 dcbd
00000130: 0d01 94bb 7f65 8b3e d1bb a33e 8382 c43e
00000140: 8b50 263f b362 0b3e 6443 913e a1a4 8bbd
00000150: 9bfd 92be 17ac 34be 0788 af3d 1f46 1d3f
00000160: eb65 863d f2fd 073e 177e 873d f4e3 ec3d
00000170: c316 973e ee30 2c3e 444f 8a3e 3f7a 73bc
00000180: f98c 18bf 1aa7 143e c3e6 d63e f998 c0be
00000190: 31da a7be 2f8f 84be 789e abbd 505f 3d3c
000001a0: 6a6a 36be 0a25 e0bd f287 363d b1ad d63e
000001b0: 961e 173f 4b5d 363e eb80 e23d 1164 12bd
000001c0: 5975 f5be 0b9b 95bd 68e9 b1bd 42f4 b43e
000001d0: 1ef0 983e 8214 473e 7099 863d 5c18 933e
000001e0: d3d5 18be f4d3 0bbe 998e ac3c d31c 76bd
000001f0: 6e09 3b3e ffda 5d3e f878 8b3d f766 e4bd
00000200: ac41 9ebe 8e91 d3be 865a fcbe e343 3cbe
00000210: 4990 a4bd 2322 3c3e cb69 163e c399 ad3e
00000220: 8650 233e 0436 abbc edb6 9f3c 063c 68be
00000230: c257 93be 4b77 b7be fe97 9cbd 0ced 463e
00000240: c409 3b3d 99cb 2e3e 1be3 d13d ced4 42be
00000250: 3f89 06be b9fe 0cbe 81ef 9cbe f3c0 13be
00000260: 6381 f1bc 01f8 ca3d f52c a9bc 4df2 1fbe
00000270: 67e3 6ebe ef78 8ebe f120 fcbe b41e c8be
00000280: cfff 7abd 5fa7 6a3d d0a4 bc3e b9ca 2b3e
00000290: 6167 223e 6691 ff3d d62d bebe 1498 e9bd
000002a0: a962 90be 26af 07bf 14fa a73d 764b 853d
000002b0: 4a5d e3bd 8663 833e c314 973d 473a 98be
000002c0: 79df 6abe 7908 d6bd 2a2f 75be 549f 22be
000002d0: 2349 a7be 376a 883d 49a6 03be 4825 64be
000002e0: 3522 c33b 42dd 74be dfb4 acbe 9f4d cdbe
000002f0: ff20 2fbd e643 153e d1b8 8b3e 9450 623e
00000300: c055 2c3e 6ef1 25bd 843c 09bf 33ff dbbe
00000310: 3b29 08bf efd6 e0be 8729 c23d 11aa 463d
00000320: 7461 84be 3f6b 723e 5117 33bd a330 babe
00000330: 7e6a a7be e0bb ecbd 5683 41be c450 ebbc
00000340: 50ec e1bd 6716 2f3e af4a 803e b860 4abc
00000350: e81b f7bd 639a b5bd ae55 82be 9204 b8be
00000360: dc68 65be 900c 963d d388 713d d875 0abe
00000370: f52b 84be 4289 40be b828 6c3d 8dd1 35be
00000380: 2bed 2bbf 49e0 1dbf 5bf3 b9bd 38b2 22bd
00000390: 5539 4cbe ad6d dd3d e7a0 a13d f170 08bd
000003a0: eeca cbbd 1efd 74be fdf0 4dbe c62c 3d3d
000003b0: acd6 2c3e 41e1 d73e 2252 c23e 7069 783e
000003c0: e3d5 533d 0b42 57be 6585 23be 45ae 25be
000003d0: abb6 dfbd e71e 073b c03c f0bd af70 7cbe
000003e0: 6dd6 e6bd 38d1 7b3c 7b3d 88ba d95f acbc
000003f0: 1d7b cabe e5e6 f8be 114f 363e cb32 6a3c

sequential_5/dense_11/MatMul f4 [10, 128]
0.4653283 0.058539394 -0.221934 -0.11279283 0.17315489 0.09623781 -0.5712027 0.052664507
-0.26906443 0.15793237 0.19956498 -0.53534365 0.060859084 0.11682416 -0.228296 0.0970503
0.11963257 -0.4247761 0.022444496 -0.4684129 0.087137945 -0.1793508 0.07139702 0.08090426
0.19129483 -0.09622251 -0.16833825 -0.06900508 0.09741252 -0.20543507 -0.020487566 -0.048040062
0.22552975 -0.12071713 0.06262653 0.025788665 0.011396638 -0.109369196 -0.06819106 -0.50447637
0.011715226 0.122990176 0.21441163 -0.19838756 -0.07141271 -0.26301867 -0.13271901 0.053005327
0.014046996 0.043581378 -0.104539394 0.0574003 0.09694024 0.089092694 -0.4240579 -0.10058519
-0.36799794 0.10752225 -0.0588668 0.098460525 0.043993957 -0.40723866 -0.13688514 0.2573058
-0.12402342 0.046417616 0.012554399 -0.053240173 -0.21656637 -0.4944188 -0.092306726 -0.15711069
-0.41788954 0.12893566 -0.3070199 0.1679979 -0.33638492 -0.8634556 0.5936418 0.030858094
-0.106383584 0.11606682 -0.044188958 -0.049811553 0.20000525 -0.17348251 0.097213395 -1.2436374
0.28836584 -0.41853976 0.11837286 -0.20691173 -0.24365933 -0.20287979 -0.3541168 0.18564074
0.3987612 -0.108730644 -0.4552595 0.30047464 -0.44876546 -0.02488048 -0.104063556 -0.15612647
-0.3120091 0.22280252 0.1712412 0.14630722 0.19057588 -0.39567167 0.17295112 0.015528578
0.03067294 0.13580088 0.31189126 0.009551114 -0.0017320964 -0.05982904 -0.17543079 0.18960233
-0.39249754 0.026985452 -0.31314075 -0.18593535 0.17478499 -0.34599552 0.04032884 -0.15586063
-1.5311574 -0.17317948 -0.21976733 -0.32768118 -0.38583615 -0.004633123 -0.17668568 -0.24543335
-0.7169241 0.30800396 -0.11488988 -0.15946132 0.5195589 0.43923944 0.16391869 -0.225447
-0.41980106 0.155089 -0.68654734 -0.1263393 0.07520603 -0.7210795 0.3613285 0.5722617
-0.14647561 -0.3916627 -0.44132084 0.63802356 -0.14261763 0.2665923 -0.5858239 -0.33214998
0.4012814 -0.13409302 -0.49287477 -0.31936115 0.14905353 -0.44903183 -0.32811245 0.4183325
-0.39737406 -0.79068345 0.0660486 -0.5236139 -0.1626093 -0.016212719 0.01010997 -0.04567312
0.17685549 -0.018561877 -0.16211718 -0.15665679 0.22783814 0.13691565 -0.81275284 0.14921808
0.9263584 -0.26523685 -0.2783712 -0.23517981 -0.28709275 -0.13238387 -0.3188908 0.02675927
-1.2342622 -0.47650844 0.4023753 -0.56653756 -0.34817424 -0.23896591 -0.10424643 0.17726783
-0.23979607 0.17619063 0.13459371 -0.17561357 0.2139173 0.21026403 -0.687852 -0.3544926
0.66653615 -0.18819171 0.13142778 -0.13550569 -0.47968587 -0.016248176 0.16738851 -1.0846004
-0.4581156 -0.5078037 -0.3150468 0.22176293 -0.76888454 0.29683807 0.11763272 -0.4020593
-0.52044153 -0.42363036 0.6746519 -0.6031273 -0.043426823 -0.38401687 -0.21075617 -0.21866408
0.15077102 -0.71094316 -0.42570597 0.28395292 -0.36711776 -0.2894863 0.10079276 -0.027555069
0.016140703 -0.6213818 0.05739092 -0.19457039 0.15737379 -0.0483176 -1.4575037 0.35717982
-0.33307025 0.39543107 -0.21566604 -0.26270515 -0.58755815 -0.44024286 0.59723103 -0.78648436
00000000: 833f ee3e 01c7 6f3d ab42 63be edff e6bd
00000010: 844f 313e 5418 c53d 573a 12bf bdb6 573d
00000020: d0c2 89be 06b9 213e c35a 4c3e 480c 09bf
00000030: 6047 793d 8141 ef3d 6dc6 69be 4fc2 c63d
00000040: ec01 f53d 417c d9be 85dd b73c d1d3 efbe
00000050: 6175 b23d bca7 37be 9a38 923d 22b1 a53d
00000060: cbe2 433e 4f10 c5bd dd60 2cbe 8952 8dbd
00000070: 3780 c73d 925d 52be 8ad5 a7bc a8c5 44bd
00000080: 45f1 663e 8b3a f7bd 5742 803d c042 d33c
00000090: f7b8 3a3c f5fc dfbd c1a7 8bbd 5d25 01bf
000000a0: 38f1 3f3c 46e2 fb3d b98e 5b3e 1c26 4bbe
000000b0: d440 92bd 62aa 86be 7ee7 07be 1d1c 593d
000000c0: 5f25 663c 6382 323d c018 d6bd 941c 6b3d
000000d0: 9b88 c63d 3b76 b63d 1e1e d9be 9cff cdbd
000000e0: 3a6a bcbe a034 dc3d 501e 71bd aca5 c93d
000000f0: 0233 343d 9681 d0be 9e2b 0cbe 96bd 833e
00000100: feff fdbd 6620 3e3d f7b0 4d3c 5e12 5abd
00000110: 93c3 5dbe 7624 fdbe 4f0b bdbd a0e1 20be
00000120: 9ef5 d5be b607 043e b631 9dbe a407 2c3e
00000130: a53a acbe 6d0b 5dbf e9f8 173f 1dca fc3c
00000140: a3df d9bd 71b4 ed3d 7bff 34bd 3307 4cbd
00000150: 2dce 4c3e 66a5 31be d117 c73d 832f 9fbf
00000160: b0a4 933e d84a d6be 786d f23d abe0 53be
00000170: d581 79be b8bf 4fbe cc4e b5be 9b18 3e3e
00000180: 6e2a cc3e 2cae debd c617 e9be d0d7 993e
00000190: 96c4 e5be 26d2 cbbc 461f d5bd 9edf 1fbe
000001a0: a8bf 9fbe 5826 643e da59 2f3e 8fd1 153e
000001b0: 5326 433e 7a95 cabe 191a 313e 946b 7e3c
000001c0: d145 fb3c 630f 0b3e 36b0 9f3e 477c 1c3c
000001d0: 8307 e3ba 4c0f 75bd 21a4 33be 1d27 423e
000001e0: 70f5 c8be 9810 dd3c fc53 a0be d665 3ebe
000001f0: d6fa 323e 5326 b1be db2f 253d ee99 1fbe
00000200: f7fc c3bf f655 31be b00a 61be d4c5 a7be
00000210: 518c c5be 74d1 97bb 17ed 34be e152 7bbe
00000220: 5688 37bf b2b2 9d3e 634b ebbd d449 23be
00000230: d001 053f fee3 e03e 4dda 273e 94db 66be
00000240: 2af0 d6be a7cf 1e3e 91c1 2fbf 175f 01be
00000250: 9e05 9a3d ab98 38bf 0d00 b93e be7f 123f
00000260: b4fd 15be 0388 c8be cef4 e1be 8355 233f
00000270: 5b0a 12be c97e 883e 8ef8 15bf 900f aabe
00000280: c174 cd3e ae4f 09be 155a fcbe 4e83 a3be
00000290: 7da1 183e 80e7 e5be 5bfe a7be ad2f d63e
000002a0: 9d74 cbbe 3b6a 4abf 7d44 873d 900b 06bf
000002b0: 0d83 26be 89d0 84bc 4aa4 253c bd13 3bbd
000002c0: 9b19 353e 140f 98bc 0c02 26be a36a 20be
000002d0: 674e 693e 9e33 0c3e 9210 50bf a0cc 183e
000002e0: d325 6d3f 20cd 87be ac86 8ebe fad2 70be
000002f0: d2fd 92be a38f 07be a845 a3be 4236 db3c
00000300: 4efc 9dbf eaf8 f3be 2304 ce3e 9b08 11bf
00000310: e543 b2be 7bb3 74be 277f d5bd b385 353e
00000320: 1a8d 75be 516b 343e efd2 093e 0bd4 33be
00000330: 230d 5b3e 744f 573e 1217 30bf 0e80 b5be
00000340: 1da2 2a3f 54b5 40be 0195 063e 01c2 0abe
00000350: 6399 f5be e51a 85bc e567 2b3e 30d4 8abf
00000360: 218e eabe 6cff 01bf d04d a1be d215 633e
00000370: 9ed5 44bf 29fb 973e 6ce9 f03d b7da cdbe
00000380: a83b 05bf 14e6 d8be fdb5 2c3f 8d66 1abf
00000390: 53e0 31bd dc9d c4be 77d0 57be 7ae9 5fbe
000003a0: b863 1a3e 5f00 36bf 22f6 d9be 4762 913e
000003b0: dcf6 bbbe 8c37 94be 6f6c ce3d 2bbb e1bc
000003c0: 8239 843c e112 1fbf be12 6b3d 763d 47be
000003d0: 9826 213e ade8 45bd 7b8f babf 46e0 b63e
000003e0: 2f88 aabe f175 ca3e 8fd7 5cbe 4a81 86be
000003f0: 366a 16bf 8367 e1be 22e4 183f 0a57 49bf
