tf_lite_float_16_model.tflite (tflite, 205744 bytes, 4 tensors)

dense_3/bias f2 [10]
-0.06067 -0.4033 0.2072 0.3003 -0.405 0.03616 0.209 0.283
-0.1611 -0.5024
00000000: c4ab 74b6 a132 ce34 7bb6 a128 b032 8734
00000010: 28b1 05b8

dense_2/bias f2 [128]
0.2458 -0.02173 0.1682 0.0381 0.04816 -0.01175 -0.01372 0.0862
-0.0677 0.1072 0.3206 0.4548 0.741 0.655 -0.1754 0.2732
0.5054 0.4983 0.2024 -0.00665 0.3335 0.2108 0.04282 -0.2106
0.7603 0.3748 -0.33 -0.03638 0.6353 0.02876 0.745 -0.01808
0.4158 -0.3772 0.4495 0.564 -0.1794 -0.175 -0.353 -0.01892
0.8174 -0.3645 0.5806 0.854 -0.01581 -0.2101 -0.1719 0.2827
-0.02425 -0.165 0.0675 0.5137 0.0674 0.2228 0.517 -0.0211
0.0499 -0.0849 0.4612 0.4956 -0.3054 0.427 0.2144 -0.0304
-0.00889 0.00664 0.1736 0.116 0.1665 0.3872 0.2343 0.2211
-0.04337 0.2893 0.2734 0.5107 0.0524 0.6577 0.1844 0.3992
0.161 0.5947 0.4067 -0.01581 0.3452 0.6143 -0.01892 0.5767
0.3584 0.1295 0.1671 -0.015434 -0.00922 0.3994 0.3584 0.161
0.1594 0.285 -0.08704 0.3074 -0.03738 0.272 0.1692 0.4646
-0.4128 0.433 0.4563 0.1895 0.0737 0.1821 -0.212 0.3733
0.703 0.4502 -0.003286 -0.2356 -0.3235 -0.2717 0.2324 0.4624
0.3254 0.6226 0.4775 0.3474 0.131 0.5835 0.1683 0.07745
00000000: de33 90a5 6231 e028 2a2a 04a2 06a3 842d
00000010: 55ac dc2e 2135 4737 ee39 3d39 9db1 5f34
00000020: 0b38 f937 7a32 cf9e 5635 bf32 7b29 bdb2
00000030: 153a ff35 48b5 a8a8 1539 5d27 f639 a1a4
00000040: a736 09b6 3137 8338 beb1 9ab1 a6b5 d8a4
00000050: 8a3a d5b5 a538 d53a 0ca4 b9b2 80b1 8634
00000060: 35a6 48b1 522c 1c38 502c 2133 2338 67a5
00000070: 632a 6fad 6137 ee37 e3b4 d536 dc32 c8a7
00000080: 8da0 cd1e 8e31 6d2f 5431 3236 7f33 1333
00000090: 8da9 a134 6034 1638 b52a 4339 e731 6336
000000a0: 2731 c238 8236 0ca4 8635 ea38 d8a4 9d38
000000b0: bc35 2530 5931 e7a3 b8a0 6436 bc35 2731
000000c0: 1a31 8f34 92ad eb34 c9a8 5a34 6a31 6f37
000000d0: 9bb6 ee36 4d37 1032 b82c d431 c9b2 f935
000000e0: a039 3437 bb9a 8ab3 2db5 59b4 7033 6637
000000f0: 3535 fb38 a437 8f35 3130 ab38 6331 f52c

sequential_1/dense_2/MatMul f2 [128, 784]
0.256 -0.0619 -0.1118 0.4424 0.2632 0.593 0.799 0.2756
-0.02693 0.2905 0.07513 -0.2274 0.06537 -0.02774 -0.1759 0.2125
-0.2059 0.02017 -0.1274 -0.53 -0.411 0.3225 0.1642 0.2446
0.2766 0.1958 -0.05862 0.02849 -0.2815 -0.2458 -0.3274 0.2964
0.1741 0.687 0.6553 0.1776 0.2341 -0.02618 -0.06934 -0.04962
0.183 0.1203 -0.07196 -0.0937 -0.2808 -0.412 -0.3167 -0.1716
0.00813 0.339 0.4485 0.2888 0.368 0.2157 -0.1564 -0.389
0.04852 0.0504 -0.03644 0.2222 0.2035 0.5166 0.3967 0.1569
0.2473 0.0906 0.02568 0.1777 -0.04944 -0.011925 -0.0809 -0.06116
-0.01044 0.07666 -0.1891 -0.00824 -0.09485 0.3232 0.1577 0.3132
0.05362 0.2096 0.04117 -0.1312 0.4172 0.073 -0.1826 0.06805
0.1625 0.495 0.1765 0.1058 0.3066 0.02943 -0.03348 0.1837
0.04327 -0.016 -0.09296 0.04874 0.11664 -0.1249 -0.1512 0.09033
-0.2292 0.011665 0.1808 0.02092 -0.2744 0.1925 0.2822 -0.03677
0.02197 0.02652 0.2003 -0.1826 0.1898 0.3103 0.1407 0.04807
0.1982 -0.014534 0.08875 0.1497 0.06287 0.00759 -0.07227 0.1888
0.1042 0.0815 -0.1182 -0.01456 -0.0652 -0.09174 0.027 -0.04404
-0.1989 0.1754 0.282 -0.1898 0.1857 0.4998 -0.1606 0.07825
0.03094 0.2206 0.0615 -0.02303 0.11505 0.0869 0.1103 0.01068
-0.04538 -0.0481 -0.0906 0.09827 0.04858 -0.1208 -0.1278 -0.02838
-0.241 -0.2179 -0.01036 -0.147 -0.1444 0.0407 0.07294 -0.4214
0.1227 0.4224 -0.1438 -0.06903 -0.02222 -0.07336 -0.2367 -0.1586
0.04163 0.297 0.1733 -0.166 0.09393 -0.04575 -0.1387 -0.04755
0.005924 -0.011826 0.0452 0.03223 -0.2158 -0.2769 -0.0743 -0.251
0.01909 -0.279 -0.4436 -0.1825 0.2435 0.1748 -0.2708 -0.3372
-0.1517 -0.0381 -0.1693 -0.0866 -0.1272 0.1769 0.0132 -0.0286
0.0712 0.126 0.0268 0.19 0.0761 -0.0803 0.03247 0.1537
0.06964 -0.1189 -0.003769 -0.388 -0.315 -0.446 -0.537 -0.1935
0.1646 0.1619 -0.2355 -0.2917 -0.1843 -0.1863 -0.06665 -0.2416
-0.0986 0.02982 -0.0725 0.02408 0.07117 0.0867 -0.001999 0.002945
-0.1196 -0.04694 -0.00831 0.08704 0.02132 -0.05673 -0.01723 -0.395
-0.3943 -0.3337 -0.3618 0.08704 0.1454 0.137 -0.1649 -0.1
00000000: 1934 ecab 28af 1437 3634 be38 643a 6934
00000010: e5a6 a634 cf2c 47b3 2f2c 1aa7 a1b1 cd32
00000020: 97b2 2a25 14b0 3db8 93b6 2935 4131 d433
00000030: 6d34 4432 81ab 4b27 81b4 deb3 3db5 be34
00000040: 9231 7f39 3e39 af31 7e33 b4a6 70ac 5aaa
00000050: db31 b32f 9bac ffad 7eb4 98b6 11b5 7eb1
00000060: 2a20 6d35 2d37 9f34 e335 e732 01b1 39b6
00000070: 362a 742a aaa8 1c33 8332 2238 5936 0531
00000080: ea33 cc2d 9326 b031 54aa 1ba2 2dad d4ab
00000090: 58a1 e82c 0db2 38a0 12ae 2c35 0c31 0335
000000a0: dd2a b532 4529 33b0 ad36 ac2c d8b1 5b2c
000000b0: 3331 ec37 a631 c52e e834 8927 49a8 e131
000000c0: 8a29 19a4 f3ad 3d2a 772f feaf d7b0 c82d
000000d0: 56b3 f921 c931 5b25 64b4 2932 8434 b5a8
000000e0: a025 ca26 6932 d8b1 1332 f734 8130 272a
000000f0: 5832 71a3 ae2d ca30 062c c61f a0ac 0b32
00000100: ab2e 372d 91af 74a3 2cac dfad e926 a3a9
00000110: 5db2 9d31 8334 13b2 f131 ff37 24b1 022d
00000120: ec27 0f33 df2b e5a5 5d2f 902d 0f2f 7821
00000130: cfa9 28aa ccad 4a2e 382a bbaf 17b0 44a7
00000140: b6b3 f9b2 4ea1 b4b0 9fb0 3629 ab2c beb6
00000150: da2f c236 9ab0 6bac b0a5 b2ac 93b3 13b1
00000160: 5429 c134 8c31 50b1 032e dba9 70b0 16aa
00000170: 111e 0ea2 c929 2028 e8b2 6eb4 c1ac 04b4
00000180: e324 77b4 19b7 d7b1 cb33 9831 55b4 65b5
00000190: dbb0 e0a8 6bb1 8bad 12b0 a931 c222 52a7
000001a0: 8f2c 0830 dc26 1432 df2c 24ad 2828 eb30
000001b0: 752c 9caf b89b 35b6 0ab5 23b7 4cb8 31b2
000001c0: 4431 2e31 89b3 abb4 e6b1 f6b1 44ac bbb3
000001d0: 4fae a227 a4ac 2a26 8e2c 8c2d 1898 081a
000001e0: a8af 02aa 41a0 922d 7525 43ab 69a4 52b6
000001f0: 4fb6 57b5 cab5 922d a730 6230 47b1 66ae

sequential_1/dense_3/MatMul f2 [10, 128]
0.001661 -0.03044 0.2805 0.002333 -0.764 0.1594 0.0721 0.1437
-0.2786 0.11743 0.1064 -0.5454 -0.561 -0.0938 -0.11743 -0.02368
-0.010735 0.03223 -0.02269 0.07025 -0.1873 -0.3628 -0.4832 -0.1909
-0.02475 0.1698 -0.0382 -0.0871 -0.2512 -0.006325 0.2703 -0.05212
0.0483 -0.3171 -0.2201 -0.3672 -0.2489 0.03152 0.2195 -0.187
-0.1881 -0.0889 -0.4338 -0.4692 -0.0419 0.2544 -0.3438 0.4143
-0.1995 0.10754 0.03992 0.08844 -0.04593 0.2925 -0.5103 0.00338
-0.1211 0.1652 0.0987 -0.02138 -0.1505 0.2827 0.07916 -0.1515
0.1626 0.1985 0.04034 -0.3723 0.0977 0.0908 0.1952 -0.625
0.0296 -0.1953 0.006386 0.443 0.3328 0.02397 -0.1816 0.2537
0.08563 -0.4434 0.0762 0.03293 -0.259 0.694 -0.1409 -0.0861
-0.5474 -0.2944 -0.2396 0.0483 0.2332 -0.2084 0.05246 -1.053
0.0314 -0.0814 0.1191 0.1294 -0.1293 -0.05832 -0.6577 0.2222
0.1726 -0.10156 0.03888 -0.2854 -0.12006 0.02122 0.08246 -0.1165
-0.4275 0.1678 -0.03958 0.06415 0.02174 0.04822 -0.05994 0.05438
0.2289 0.105 -0.1385 -0.1433 -0.1145 -0.00129 0.2456 -0.1436
0.0963 -0.1058 -0.4092 -0.4478 0.6763 0.167 0.182 0.274
-0.32 0.3118 -0.323 0.2417 -0.3706 -0.9277 -0.984 -0.1752
-0.4827 -1.106 -0.2197 0.1586 -0.0874 -0.4553 0.5376 -0.06366
0.2429 -0.5054 0.53 -0.2698 0.144 0.1705 -0.1398 0.10376
0.02127 0.6465 0.12286 0.514 -0.1702 0.144 -0.1149 0.1531
-0.667 -0.1621 -0.532 -1.951 0.01527 0.0707 0.1321 -0.8765
-0.0965 -0.468 -0.1637 -0.516 0.005005 -0.6235 -0.505 0.1396
-0.8486 0.3538 0.1298 -0.6016 0.1321 -0.1904 0.484 -0.0877
-0.02861 0.1357 -0.515 0.1759 -0.494 0.1816 0.585 0.2206
0.1599 0.02705 0.4324 -0.1328 0.01061 -0.637 0.09515 -0.2817
0.5454 -0.4182 -0.3032 0.4116 0.01698 0.10126 0.1763 -0.1199
-0.959 -0.486 0.136 -0.1702 0.2632 -2.309 -0.4727 -0.1886
-0.5693 -0.785 -0.3206 0.2107 -0.1239 0.2922 -0.2214 -0.6206
0.2866 -0.11 0.1333 -0.1697 -0.5615 -0.4385 0.01137 0.1305
-0.2815 -0.625 -0.1586 0.5454 -0.192 -0.4875 -0.6475 0.4778
-0.07275 0.2632 -0.4365 -0.1454 -0.3293 -0.6196 -0.2722 0.273
00000000: ce16 cba7 7d34 c718 1dba 1a31 9d2c 9930
00000010: 75b4 842f cf2e 5db8 7db8 01ae 84af 10a6
00000020: 7fa1 2028 cfa5 7f2c feb1 ceb5 bbb7 1cb2
00000030: 56a6 6f31 e4a8 93ad 05b4 7a9e 5334 acaa
00000040: 2f2a 13b5 0bb3 e0b5 f7b3 0928 0633 fcb1
00000050: 05b2 b1ad f1b6 82b7 5da9 1234 80b5 a136
00000060: 62b2 e22e 1c29 a92d e1a9 ae34 15b8 ec1a
00000070: c0af 4931 512e 79a5 d1b0 8634 112d d9b0
00000080: 3431 5a32 2a29 f5b5 412e d02d 3f32 00b9
00000090: 9427 40b2 8a1e 1737 5335 2326 d0b1 0f34
000000a0: 7b2d 18b7 e02c 3728 25b4 8d39 82b0 83ad
000000b0: 61b8 b6b4 abb3 2f2a 7633 abb2 b72a 36bc
000000c0: 0528 36ad 9f2f 2430 23b0 77ab 43b9 1c33
000000d0: 8631 80ae fa28 91b4 afaf 6f25 472d 75af
000000e0: d7b6 5f31 11a9 1b2c 9125 2c2a acab f62a
000000f0: 5333 b82e 6fb0 96b0 54af 4995 dc33 98b0
00000100: 2a2e c5ae 8cb6 2ab7 6939 5831 d331 6234
00000110: 1fb5 fd34 2bb5 bc33 eeb5 6cbb dfbb 9bb1
00000120: b9b7 6dbc 08b3 1331 98ad 49b7 4d38 13ac
00000130: c633 0bb8 3d38 51b4 9c30 7531 79b0 a42e
00000140: 7225 2c39 dd2f 1d38 72b1 9c30 5baf e630
00000150: 56b9 30b1 42b8 cebf d123 862c 3a30 03bb
00000160: 2dae 7db7 3db1 21b8 201d fdb8 0ab8 7830
00000170: caba a935 2730 d0b8 3a30 18b2 be37 9dad
00000180: 53a7 5830 1fb8 a131 e7b7 d031 ae38 0f33
00000190: 1e31 ed26 eb36 40b0 6f21 19b9 172e 82b4
000001a0: 5d38 b1b6 dab4 9636 5924 7b2e a431 acaf
000001b0: acbb c7b7 5a30 72b1 3634 9ec0 90b7 09b2
000001c0: 8eb8 48ba 21b5 be32 eeaf ad34 16b3 f7b8
000001d0: 9634 0aaf 4430 6eb1 7eb8 04b7 d221 2d30
000001e0: 81b4 00b9 13b1 5d38 25b2 cdb7 2eb9 a537
000001f0: a8ac 3634 fcb6 a7b0 45b5 f5b8 5bb4 5e34
