tf_lite_quant_model.tflite (tflite, 103968 bytes, 4 tensors)

dense_3/bias f4 [10]
-0.060667027 -0.40343776 0.20717916 0.3003444 -0.40498763 0.036168225 0.20894186 0.28300253
-0.16114827 -0.50260955
00000000: fd7d 78bd 658f cebe c626 543e bec6 993e
00000010: 8a5a cfbe 2225 143d dbf4 553e b5e5 903e
00000020: 0d04 25be 05ab 00bf

dense_2/bias f4 [128]
0.24585424 -0.021724017 0.16824564 0.038070887 0.0481609 -0.011751787 -0.013715202 0.0861922
-0.06770746 0.1071628 0.32045504 0.45484185 0.7409997 0.6548999 -0.17547536 0.27322948
0.5052424 0.4982144 0.20240475 -0.0066486956 0.33361796 0.21082073 0.042816862 -0.21054713
0.7602701 0.3747265 -0.33018667 -0.036390677 0.6352833 0.02875899 0.74490345 -0.018088855
0.4157107 -0.37712392 0.44939405 0.5637955 -0.17938633 -0.17508289 -0.35310656 -0.01892323
0.81727946 -0.3644442 0.5804372 0.85394305 -0.015806224 -0.21012965 -0.17192885 0.28281152
-0.024250703 -0.16508818 0.067494646 0.5134589 0.06739393 0.22272898 0.51685774 -0.021107499
0.049883828 -0.08489746 0.46116555 0.4956996 -0.30540943 0.42690846 0.21439587 -0.030401282
-0.008886814 0.0066397963 0.17359892 0.11605546 0.16651568 0.38716486 0.23420162 0.22108257
-0.043379024 0.28918874 0.27343893 0.5106488 0.052409668 0.65750915 0.18443482 0.3991178
0.16095236 0.5948687 0.40682766 -0.015804665 0.34519878 0.6141907 -0.018913401 0.5766403
0.35838637 0.12951484 0.16707328 -0.015436557 -0.009217993 0.39936107 0.35836217 0.16098882
0.15945801 0.28498843 -0.08701499 0.30748448 -0.037369102 0.27200788 0.16913544 0.46469235
-0.4128667 0.43299368 0.45626295 0.18950157 0.073704384 0.1820846 -0.21207564 0.37337297
0.7029225 0.450265 -0.003286139 -0.2355998 -0.32338342 -0.27170768 0.23244832 0.46229267
0.32538545 0.62254393 0.47750387 0.34752086 0.13092822 0.5833733 0.16827895 0.07744808
00000000: 37c1 7b3e 91f6 b1bc 9648 2c3e 38f0 1b3d
00000010: 5d44 453d 918a 40bc bab5 60bc 8985 b03d
00000020: 35aa 8abd 2c78 db3d af12 a43e 08e1 e83e
00000030: 28b2 3d3f 85a7 273f d0af 33be bce4 8b3e
00000040: 9157 013f f515 ff3e 3143 4f3e 4ddd d9bb
00000050: f9cf aa3e 64e1 573e bc60 2f3d ab99 57be
00000060: 10a1 423f 27dc bf3e 3a0e a9be 640e 15bd
00000070: eda1 223f f997 eb3c feb1 3e3f 142f 94bc
00000080: 08d8 d43e 6316 c1be fa16 e63e e754 103f
00000090: 0db1 37be ee48 33be 62ca b4be e404 9bbc
000000a0: 3a39 513f 6e98 babe 8897 143f 039c 5a3f
000000b0: 0e7c 81bc 3a2c 57be 1e0e 30be accc 903e
000000c0: 69a9 c6bc e00c 29be a23a 8a3d 0b72 033f
000000d0: d405 8a3d 1113 643e ca50 043f a2e9 acbc
000000e0: fc52 4c3d b8de adbd e41d ec3e 57cc fd3e
000000f0: a05e 9cbe bf93 da3e 978a 5b3e 1c0c f9bc
00000100: 009a 11bc a692 d93b eac3 313e 7cae ed3d
00000110: 1683 2a3e 793a c63e 8dd2 6f3e 7863 623e
00000120: 34ae 31bd 8c10 943e 3000 8c3e e1b9 023f
00000130: 85ab 563d 8552 283f 7bdc 3c3e 2b59 cc3e
00000140: b2d0 243e 5149 183f b74b d03e c978 81bc
00000150: e5bd b03e 9a3b 1d3f 47f0 9abc b39e 133f
00000160: 6b7e b73e 8a9f 043e 4215 2b3e 9de9 7cbc
00000170: 1107 17bc 0e79 cc3e 3f7b b73e 41da 243e
00000180: f648 233e 01ea 913e ea34 b2bd 9b6e 9d3e
00000190: 5810 19bd 9e44 8b3e d731 2d3e 28ec ed3e
000001a0: 4463 d3be 59b1 dd3e 4c9b e93e b30c 423e
000001b0: 53f2 963d 6374 3a3e 5b2a 59be be2a bf3e
000001c0: bbf2 333f 2289 e63e 445c 57bb 1341 71be
000001d0: 8392 a5be 451d 8bbe ef06 6e3e a0b1 ec3e
000001e0: ec98 a63e 0a5f 1f3f 637b f43e 41ee b13e
000001f0: 0c12 063e f457 153f 5151 2c3e 199d 9e3d

sequential_1/dense_2/MatMul i1 [128, 784] scale=0.013733619 zero_point=0
0.26093876 -0.0686681 -0.10986895 0.4394758 0.26093876 0.5905456 0.7965499 0.2746724
-0.027467238 0.28840598 0.0686681 -0.23347153 0.0686681 -0.027467238 -0.17853704 0.20600428
-0.20600428 0.013733619 -0.12360257 -0.53561115 -0.41200855 0.31587324 0.16480343 0.24720514
0.2746724 0.19227067 -0.054934476 0.027467238 -0.28840598 -0.24720514 -0.32960686 0.3021396
0.17853704 0.686681 0.6592137 0.17853704 0.23347153 -0.027467238 -0.0686681 -0.054934476
0.17853704 0.12360257 -0.0686681 -0.09613533 -0.2746724 -0.41200855 -0.31587324 -0.17853704
0.013733619 0.3433405 0.45320943 0.28840598 0.3708077 0.2197379 -0.1510698 -0.38454133
0.054934476 0.054934476 -0.041200858 0.2197379 0.20600428 0.5218775 0.39827496 0.1510698
0.24720514 0.09613533 0.027467238 0.17853704 -0.054934476 -0.013733619 -0.082401715 -0.054934476
-0.013733619 0.082401715 -0.19227067 -0.013733619 -0.09613533 0.32960686 0.1510698 0.31587324
0.054934476 0.20600428 0.041200858 -0.1373362 0.41200855 0.0686681 -0.17853704 0.0686681
0.16480343 0.49441028 0.17853704 0.10986895 0.3021396 0.027467238 -0.027467238 0.17853704
0.041200858 -0.013733619 -0.09613533 0.054934476 0.10986895 -0.12360257 -0.1510698 0.09613533
-0.23347153 0.013733619 0.17853704 0.027467238 -0.2746724 0.19227067 0.28840598 -0.041200858
0.027467238 0.027467238 0.20600428 -0.17853704 0.19227067 0.31587324 0.1373362 0.054934476
0.19227067 -0.013733619 0.082401715 0.1510698 0.0686681 0.013733619 -0.0686681 0.19227067
0.10986895 0.082401715 -0.12360257 -0.013733619 -0.0686681 -0.09613533 0.027467238 -0.041200858
-0.19227067 0.17853704 0.28840598 -0.19227067 0.19227067 0.49441028 -0.16480343 0.082401715
0.027467238 0.2197379 0.054934476 -0.027467238 0.10986895 0.082401715 0.10986895 0.013733619
-0.041200858 -0.054934476 -0.09613533 0.09613533 0.054934476 -0.12360257 -0.12360257 -0.027467238
-0.24720514 -0.2197379 -0.013733619 -0.1510698 -0.1510698 0.041200858 0.0686681 -0.42574218
0.12360257 0.42574218 -0.1373362 -0.0686681 -0.027467238 -0.0686681 -0.23347153 -0.16480343
0.041200858 0.3021396 0.17853704 -0.16480343 0.09613533 -0.041200858 -0.1373362 -0.041200858
0.0 -0.013733619 0.041200858 0.027467238 -0.2197379 -0.2746724 -0.0686681 -0.24720514
0.013733619 -0.2746724 -0.4394758 -0.17853704 0.24720514 0.17853704 -0.2746724 -0.3433405
-0.1510698 -0.041200858 -0.16480343 -0.082401715 -0.12360257 0.17853704 0.013733619 -0.027467238
0.0686681 0.12360257 0.027467238 0.19227067 0.082401715 -0.082401715 0.027467238 0.1510698
0.0686681 -0.12360257 0.0 -0.38454133 -0.31587324 -0.4394758 -0.53561115 -0.19227067
0.16480343 0.16480343 -0.23347153 -0.28840598 -0.17853704 -0.19227067 -0.0686681 -0.24720514
-0.09613533 0.027467238 -0.0686681 0.027467238 0.0686681 0.082401715 0.0 0.0
-0.12360257 -0.041200858 -0.013733619 0.082401715 0.027467238 -0.054934476 -0.013733619 -0.39827496
-0.39827496 -0.32960686 -0.35707408 0.082401715 0.1510698 0.1373362 -0.16480343 -0.09613533
00000000: 13fb f820 132b 3a14 fe15 05ef 05fe f30f
00000010: f101 f7d9 e217 0c12 140e fc02 ebee e816
00000020: 0d32 300d 11fe fbfc 0d09 fbf9 ece2 e9f3
00000030: 0119 2115 1b10 f5e4 0404 fd10 0f26 1d0b
00000040: 1207 020d fcff fafc ff06 f2ff f918 0b17
00000050: 040f 03f6 1e05 f305 0c24 0d08 1602 fe0d
00000060: 03ff f904 08f7 f507 ef01 0d02 ec0e 15fd
00000070: 0202 0ff3 0e17 0a04 0eff 060b 0501 fb0e
00000080: 0806 f7ff fbf9 02fd f20d 15f2 0e24 f406
00000090: 0210 04fe 0806 0801 fdfc f907 04f7 f7fe
000000a0: eef0 fff5 f503 05e1 091f f6fb fefb eff4
000000b0: 0316 0df4 07fd f6fd 00ff 0302 f0ec fbee
000000c0: 01ec e0f3 120d ece7 f5fd f4fa f70d 01fe
000000d0: 0509 020e 06fa 020b 05f7 00e4 e9e0 d9f2
000000e0: 0c0c efeb f3f2 fbee f902 fb02 0506 0000
000000f0: f7fd ff06 02fc ffe3 e3e8 e606 0b0a f4f9

sequential_1/dense_3/MatMul i1 [10, 128] scale=0.01905052 zero_point=0
0.0 -0.03810104 0.2857578 0.0 -0.7620208 0.15240416 0.07620208 0.15240416
-0.2857578 0.11430312 0.11430312 -0.5524651 -0.5524651 -0.0952526 -0.11430312 -0.01905052
-0.01905052 0.03810104 -0.01905052 0.07620208 -0.1905052 -0.36195987 -0.476263 -0.1905052
-0.01905052 0.17145468 -0.03810104 -0.0952526 -0.24765676 0.0 0.26670727 -0.05715156
0.05715156 -0.32385883 -0.22860624 -0.36195987 -0.24765676 0.03810104 0.22860624 -0.1905052
-0.1905052 -0.0952526 -0.43816197 -0.476263 -0.03810104 0.24765676 -0.34290937 0.41911143
-0.1905052 0.11430312 0.03810104 0.0952526 -0.03810104 0.2857578 -0.51436406 0.0
-0.11430312 0.17145468 0.0952526 -0.01905052 -0.15240416 0.2857578 0.07620208 -0.15240416
0.17145468 0.1905052 0.03810104 -0.3810104 0.0952526 0.0952526 0.1905052 -0.6286672
0.03810104 -0.1905052 0.0 0.43816197 0.32385883 0.01905052 -0.1905052 0.24765676
0.07620208 -0.43816197 0.07620208 0.03810104 -0.26670727 0.68581873 -0.13335364 -0.0952526
-0.5524651 -0.2857578 -0.24765676 0.05715156 0.22860624 -0.20955572 0.05715156 -1.0477786
0.03810104 -0.07620208 0.11430312 0.13335364 -0.13335364 -0.05715156 -0.6667682 0.22860624
0.17145468 -0.0952526 0.03810104 -0.2857578 -0.11430312 0.01905052 0.07620208 -0.11430312
-0.41911143 0.17145468 -0.03810104 0.05715156 0.01905052 0.05715156 -0.05715156 0.05715156
0.22860624 0.11430312 -0.13335364 -0.15240416 -0.11430312 0.0 0.24765676 -0.15240416
0.0952526 -0.11430312 -0.40006092 -0.45721248 0.6667682 0.17145468 0.1905052 0.26670727
-0.32385883 0.30480832 -0.32385883 0.24765676 -0.36195987 -0.9334755 -0.99062705 -0.17145468
-0.476263 -1.1049302 -0.22860624 0.15240416 -0.0952526 -0.45721248 0.53341454 -0.05715156
0.24765676 -0.51436406 0.53341454 -0.26670727 0.15240416 0.17145468 -0.13335364 0.0952526
0.01905052 0.64771765 0.11430312 0.51436406 -0.17145468 0.15240416 -0.11430312 0.15240416
-0.6667682 -0.17145468 -0.53341454 -1.943153 0.01905052 0.07620208 0.13335364 -0.87632394
-0.0952526 -0.476263 -0.17145468 -0.51436406 0.0 -0.6286672 -0.51436406 0.13335364
-0.8572734 0.36195987 0.13335364 -0.60961664 0.13335364 -0.1905052 0.476263 -0.0952526
-0.03810104 0.13335364 -0.51436406 0.17145468 -0.49531353 0.1905052 0.5905661 0.22860624
0.15240416 0.01905052 0.43816197 -0.13335364 0.01905052 -0.6286672 0.0952526 -0.2857578
0.5524651 -0.41911143 -0.30480832 0.41911143 0.01905052 0.0952526 0.17145468 -0.11430312
-0.952526 -0.49531353 0.13335364 -0.17145468 0.26670727 -2.3051128 -0.476263 -0.1905052
-0.5715156 -0.7810713 -0.32385883 0.20955572 -0.13335364 0.2857578 -0.22860624 -0.6286672
0.2857578 -0.11430312 0.13335364 -0.17145468 -0.5524651 -0.43816197 0.01905052 0.13335364
-0.2857578 -0.6286672 -0.15240416 0.5524651 -0.1905052 -0.49531353 -0.64771765 0.476263
-0.07620208 0.26670727 -0.43816197 -0.15240416 -0.32385883 -0.6286672 -0.26670727 0.26670727
00000000: 00fe 0f00 d808 0408 f106 06e3 e3fb faff
00000010: ff02 ff04 f6ed e7f6 ff09 fefb f300 0efd
00000020: 03ef f4ed f302 0cf6 f6fb e9e7 fe0d ee16
00000030: f606 0205 fe0f e500 fa09 05ff f80f 04f8
00000040: 090a 02ec 0505 0adf 02f6 0017 1101 f60d
00000050: 04e9 0402 f224 f9fb e3f1 f303 0cf5 03c9
00000060: 02fc 0607 f9fd dd0c 09fb 02f1 fa01 04fa
00000070: ea09 fe03 0103 fd03 0c06 f9f8 fa00 0df8
00000080: 05fa ebe8 2309 0a0e ef10 ef0d edcf ccf7
00000090: e7c6 f408 fbe8 1cfd 0de5 1cf2 0809 f905
000000a0: 0122 061b f708 fa08 ddf7 e49a 0104 07d2
000000b0: fbe7 f7e5 00df e507 d313 07e0 07f6 19fb
000000c0: fe07 e509 e60a 1f0c 0801 17f9 01df 05f1
000000d0: 1dea f016 0105 09fa cee6 07f7 0e87 e7f6
000000e0: e2d7 ef0b f90f f4df 0ffa 07f7 e3e9 0107
000000f0: f1df f81d f6e6 de19 fc0e e9f8 efdf f20e
