tf_lite_float_16_model.tflite (tflite, 205696 bytes, 4 tensors)

dense_1/bias f2 [10]
00000000: 940e bbb5 7232 d134 65b6 cf2f ee30 3b31
00000010: c0b0 adb6
0.0004015 -0.3582 0.2014 0.301 -0.3997 0.122 0.154 0.1635
-0.1484 -0.4172

dense/bias f2 [128]
00000000: 8437 0eab 21a5 4831 6139 20b8 4736 5933
00000010: cfb0 da34 02a4 c638 fb31 b537 5f35 9ea3
00000020: 0334 9d34 9ab0 4a2e 9335 1334 572e 3a35
00000030: 9cb0 f939 e232 4735 2736 4035 0a2d 5135
00000040: 2136 2338 bfae fb2e 702c 422d 8236 95b2
00000050: 5db5 5eb3 1734 78a4 27b4 8a38 0f37 8133
00000060: 33b4 b531 223a d331 70a6 0339 bb33 26b0
00000070: 1139 8533 dea7 f036 93a4 2438 2daf 132c
00000080: f534 4936 95ae 14b7 9135 04b2 a8a3 5635
00000090: 06b7 17a7 8d35 2a36 bcaf 2136 e326 5d37
000000a0: 27ab 0b37 e837 3f38 00a3 a234 0aa5 cfb0
000000b0: c034 1fa1 8ab0 0b2f 6432 0635 6231 e938
000000c0: 7b38 9f34 1438 482b b328 cc28 f835 2b35
000000d0: 1a37 2336 adb5 d434 23b1 eb36 7b34 b835
000000e0: 7db8 77a1 3d38 cb38 6b36 eb34 3f37 7637
000000f0: 6b37 06a6 5230 40ac b537 3bb2 d334 f424
0.4697 -0.0551 -0.02003 0.165 0.6724 -0.5156 0.3923 0.2296
-0.1503 0.3032 -0.01566 0.5967 0.1869 0.4817 0.3357 -0.01488
0.2507 0.2883 -0.1438 0.09827 0.3484 0.2546 0.09906 0.3267
-0.144 0.7466 0.2151 0.3298 0.3845 0.3281 0.07874 0.3323
0.383 0.517 -0.1054 0.1091 0.06934 0.08215 0.4067 -0.2057
-0.3352 -0.2302 0.2556 -0.01746 -0.2595 0.5674 0.4412 0.2345
-0.2625 0.1783 0.7666 0.182 -0.02515 0.6265 0.2416 -0.1296
0.6333 0.235 -0.03073 0.4336 -0.01787 0.5176 -0.1121 0.06366
0.3098 0.3928 -0.10284 -0.4424 0.348 -0.188 -0.01495 0.3335
-0.439 -0.0277 0.347 0.3853 -0.12085 0.383 0.0269 0.4602
-0.05588 0.4402 0.4941 0.531 -0.01367 0.2896 -0.01968 -0.1503
0.2969 -0.01 -0.1418 0.11005 0.1997 0.314 0.1682 0.614
0.56 0.2888 0.51 0.0569 0.0367 0.03748 0.373 0.323
0.4438 0.3835 -0.3547 0.3018 -0.1605 0.4324 0.28 0.3574
-0.561 -0.01067 0.53 0.599 0.4011 0.3074 0.453 0.4663
0.4636 -0.02353 0.135 -0.0664 0.4817 -0.1947 0.3015 0.01935

sequential/dense/MatMul f2 [128, 784]
00000000: 04ac f7b2 d2aa 3e31 54af 94b2 fab3 812f
00000010: d5a9 76ad ef2f 162c 56b6 7fb2 82b1 24b2
00000020: ec2d a2a8 1531 741e d1ab 7aaa e4b0 46af
00000030: d533 fe30 47ac 8cad 0aa6 6fab a531 2032
00000040: cc30 19a8 20a5 ff33 ee2d feaa 5a30 af2c
00000050: 8eab daa9 7915 0130 ba32 2eaa 739a 9f2d
00000060: 752d 1f33 ed2a 812f c032 4234 6b33 492c
00000070: a9a9 53a9 0f2d b534 6e27 582c ff2c cb2c
00000080: fc2c fdae 23a8 a8af d52a 302d 532e 3b2f
00000090: d7a9 95b1 edb1 10a7 caac dd29 5b31 242f
000000a0: 2834 5a2d 0531 2d31 cfac 07ab 9d30 c130
000000b0: af2c ef2c 632f 762f 232e d9b1 27af 0caf
000000c0: 30ab 94af 05ad bfb0 88af 09b3 9baf fe28
000000d0: dc30 dd28 4830 da31 6532 f42d 4731 6d34
000000e0: 9830 9aa5 b733 6434 392e dc31 a19d fbad
000000f0: 86a4 d1af 20b0 5cb2 37b1 92ad 59aa f3b3
00000100: 17ad abb4 0fb4 dbac 782c 8730 2a25 3bac
00000110: e833 802f 81b0 f420 272c 782a a732 cb24
00000120: 402e 282d 79a5 e4ae f98d 9fb0 fcb4 c5a4
00000130: 70ab 9dad 92ae 8bb2 59a6 9db3 0bb3 e6ac
00000140: 2f25 fe24 caa4 0e26 58a0 fd29 b0ac f726
00000150: dc31 152d ac2e 4aac 6c2b 722c 222b 3f30
00000160: 30ac 05b0 86b0 0fa2 752e 30b0 62ad 032b
00000170: 1cad 4fad 56ab 2529 709e 9c9f 41a8 cc95
00000180: a5a8 f924 ea2f f630 a532 3030 5326 ad2e
00000190: e9ad 20ae 8fa6 5fb0 78af 7bae ad2b fd2e
000001a0: 2027 1224 14a8 d92b 55a7 662f 2430 822f
000001b0: ceab c7b4 deaf 35a4 28a3 b8ac 8fb1 312b
000001c0: 4431 db2b ad30 5524 a52d 43af 5daf 66a1
000001d0: 252e 7630 552f 3930 7830 6c27 0331 5930
000001e0: 6531 d036 8a34 5924 8ab2 04b7 68b5 8a13
000001f0: e729 63af 2bb4 d833 7c31 7928 ff30 bf31
-0.06274 -0.2177 -0.05328 0.1638 -0.1145 -0.2056 -0.2493 0.11725
-0.04556 -0.0853 0.12396 0.06384 -0.396 -0.203 -0.1721 -0.1919
0.0925 -0.0362 0.1588 0.0063 -0.06107 -0.0506 -0.1528 -0.11365
0.2448 0.156 -0.06683 -0.0867 -0.02359 -0.05807 0.1764 0.1914
0.1499 -0.032 -0.02002 0.2499 0.09265 -0.05463 0.136 0.0732
-0.05902 -0.04572 0.001336 0.1251 0.2102 -0.04828 -0.003149 0.0878
0.08527 0.2225 0.0541 0.11725 0.2109 0.266 0.2318 0.06696
-0.04422 -0.0416 0.07904 0.2942 0.02902 0.0679 0.07806 0.0749
0.0779 -0.1092 -0.03232 -0.1196 0.05338 0.08105 0.0988 0.113
-0.04562 -0.1744 -0.1852 -0.02759 -0.0748 0.0458 0.1674 0.1116
0.2598 0.0836 0.1569 0.1617 -0.07513 -0.0549 0.1442 0.1486
0.0732 0.0771 0.1154 0.1166 0.0959 -0.1827 -0.11176 -0.1101
-0.05615 -0.1184 -0.0784 -0.1483 -0.1177 -0.2198 -0.11884 0.039
0.1519 0.038 0.1338 0.1829 0.1998 0.093 0.1649 0.2766
0.1436 -0.02188 0.2411 0.2744 0.0972 0.1831 -0.005497 -0.09344
-0.01767 -0.12213 -0.1289 -0.1987 -0.163 -0.08704 -0.0496 -0.2484
-0.0795 -0.2917 -0.2537 -0.07587 0.0698 0.1415 0.02017 -0.0661
0.2471 0.1172 -0.1407 0.009674 0.0649 0.05054 0.2079 0.01872
0.09766 0.08057 -0.02138 -0.10767 -0.0003645 -0.1444 -0.3115 -0.01863
-0.0581 -0.0877 -0.10266 -0.2045 -0.0248 -0.2379 -0.2201 -0.07654
0.02025 0.0195 -0.0187 0.02365 -0.008484 0.04678 -0.07324 0.0272
0.1831 0.0794 0.10425 -0.067 0.05798 0.06946 0.05573 0.1327
-0.0654 -0.1256 -0.1414 -0.01183 0.1009 -0.1309 -0.0841 0.05478
-0.07983 -0.08295 -0.0573 0.0402 -0.006287 -0.00743 -0.03323 -0.001415
-0.0363 0.01942 0.12366 0.155 0.2076 0.1309 0.0247 0.1043
-0.09235 -0.0957 -0.02562 -0.1366 -0.1167 -0.10126 0.05997 0.1092
0.02783 0.0159 -0.03186 0.0613 -0.02864 0.1156 0.1294 0.1173
-0.06097 -0.2986 -0.1229 -0.01643 -0.01398 -0.0737 -0.1737 0.05618
0.1646 0.06137 0.1461 0.01692 0.0882 -0.11346 -0.11505 -0.010544
0.096 0.1394 0.11456 0.132 0.1396 0.02899 0.1566 0.1359
0.1686 0.4258 0.2837 0.01698 -0.2043 -0.4385 -0.338 0.0009203
0.0461 -0.1154 -0.2605 0.2451 0.1714 0.03494 0.1561 0.1796

sequential/dense_1/MatMul f2 [10, 128]
00000000: 4130 672c 062f a3b8 122f c6a7 632b 99b3
00000010: 68b5 2831 0b2f 50ab 742b 6bad f1b0 a0ad
00000020: ebb0 45b0 0aa5 1db5 98a1 f333 5a30 6f2d
00000030: acb8 2ebd f42f 8730 13b2 5030 8fb0 a434
00000040: 5631 9730 e72d abae 07b8 a233 0735 2e2c
00000050: 39b3 1c28 ad2f 30ab b2a5 a930 ca31 d9b4
00000060: fe2c 7bb6 91b4 51ac 4bb0 56b4 0d2f fb27
00000070: 9f2c 02b1 8ea5 f823 cca0 6a32 c52e 8c2f
00000080: 332f feaf 7a26 abb3 c9b3 b1b4 1a1f d837
00000090: c22c beae 202c 0e2c 8bae 0dac 3bba 79b7
000000a0: 4632 aab6 8732 a52a 67ad ea2d 672c cc2a
000000b0: 92b5 8ab8 1fac 8a34 31b2 19a8 7124 a429
000000c0: 17b9 e6af d5b6 62b5 46b3 4434 e8a7 2fbb
000000d0: 432c 7631 f02f f0b3 0e20 ea29 baac ec33
000000e0: 492e 94ad 1932 1c32 cbb5 9cb8 afb6 af27
000000f0: f8b5 61af 7d30 592e daa9 4532 212f faa4
00000100: c2b2 2630 cf2d baa8 8d33 e435 9137 97b0
00000110: 4bb2 78b8 dbad a2b5 20b4 b5b6 30ad 5f31
00000120: 2cb5 ed31 38b6 12a0 fdb2 9a30 f0b5 7630
00000130: cb35 efb7 44b8 59ac a72f 1e3a ef22 9b27
00000140: e1b2 4fb5 6ab7 0b30 7639 1db4 37b4 5db4
00000150: bf34 b2b0 cb34 39af 8bad a6b2 f3af 1435
00000160: 572e aa29 73bb 20b1 129b cbb2 bdb7 9032
00000170: 61bc ab35 2ab4 2fb9 ef26 c225 9e2d ba31
00000180: 2a32 0b34 c6a8 7338 761c c529 4a2f 8135
00000190: 5b2b 7cb4 1ab8 89b8 2717 f625 ef32 feb4
000001a0: 59b7 4dbc 232b b0b7 3930 31b0 761e 572f
000001b0: f132 9637 e736 60b5 4817 0e2e 2b30 b0bb
000001c0: 85b5 5735 e7ad 17ba 4dad 9db6 ab2e 62b9
000001d0: 13b9 29b4 0536 7824 4aaf 2a30 d432 26b0
000001e0: cd32 d4b0 9eae dc30 99b5 6035 b3bc 9db7
000001f0: 68b6 5131 02b8 d7b4 c1b6 ffb6 c1b7 892d
0.1329 0.0688 0.10974 -0.5796 0.1105 -0.03036 0.0577 -0.2374
-0.338 0.1611 0.11005 -0.05713 0.05823 -0.08466 -0.1544 -0.0879
-0.1537 -0.1334 -0.01968 -0.3196 -0.010925 0.2484 0.136 0.0849
-0.584 -1.295 0.12427 0.1415 -0.1898 0.1348 -0.1425 0.29
0.1667 0.1434 0.0922 -0.1042 -0.5034 0.2385 0.3142 0.0653
-0.2257 0.0321 0.11993 -0.05615 -0.02225 0.1456 0.1809 -0.303
0.078 -0.405 -0.2854 -0.06744 -0.1342 -0.271 0.11017 0.03117
0.0722 -0.1565 -0.0217 0.015564 -0.00937 0.2004 0.1058 0.1179
0.1125 -0.1249 0.0253 -0.2396 -0.2433 -0.2932 0.006935 0.4902
0.07434 -0.10535 0.06445 0.06335 -0.10223 -0.0633 -0.779 -0.467
0.196 -0.4165 0.204 0.0519 -0.0844 0.0924 0.0688 0.0531
-0.3481 -0.5674 -0.0644 0.2837 -0.1935 -0.032 0.01735 0.04407
-0.636 -0.1234 -0.427 -0.3364 -0.2273 0.2666 -0.03088 -0.898
0.0666 0.1707 0.124 -0.248 0.00792 0.0462 -0.07385 0.2476
0.0982 -0.08716 0.1906 0.1909 -0.362 -0.576 -0.4177 0.03001
-0.373 -0.1153 0.1403 0.0992 -0.04572 0.1959 0.1114 -0.01944
-0.2112 0.1296 0.09076 -0.03693 0.236 0.3682 0.473 -0.1434
-0.1967 -0.5586 -0.0915 -0.352 -0.2578 -0.4192 -0.08105 0.1678
-0.3232 0.1852 -0.3887 -0.00795 -0.2184 0.1438 -0.371 0.1394
0.362 -0.4958 -0.533 -0.06793 0.11957 0.7646 0.01354 0.02971
-0.215 -0.3318 -0.4634 0.1263 0.6826 -0.257 -0.2634 -0.2727
0.2966 -0.1467 0.2996 -0.11285 -0.0866 -0.2078 -0.1242 0.3174
0.09906 0.04425 -0.931 -0.1602 -0.003452 -0.2123 -0.4836 0.2051
-1.095 0.3542 -0.2603 -0.648 0.02708 0.02249 0.08777 0.179
0.1926 0.2527 -0.0373 0.556 0.004356 0.04507 0.1139 0.344
0.05746 -0.2803 -0.5127 -0.567 0.001746 0.02328 0.2167 -0.312
-0.4592 -1.075 0.05576 -0.4805 0.132 -0.131 0.00631 0.1147
0.2169 0.474 0.4314 -0.336 0.001778 0.0946 0.1302 -0.961
-0.345 0.3337 -0.0922 -0.761 -0.0828 -0.4133 0.1042 -0.673
-0.6343 -0.26 0.3762 0.01746 -0.1139 0.1301 0.2134 -0.1296
0.2125 -0.1509 -0.1034 0.1519 -0.3499 0.336 -1.175 -0.4758
-0.4004 0.1661 -0.501 -0.3025 -0.422 -0.4373 -0.4846 0.0865
