tf_lite_float_16_model.tflite (tflite, 205744 bytes, 4 tensors)

dense_5/bias f2 [10]
-0.0361 -0.3748 0.1953 0.3022 -0.304 0.071 0.1174 0.1979
-0.104 -0.4607
00000000: 9fa8 ffb5 4032 d634 ddb4 8b2c 832f 5532
00000010: a8ae 5fb7

dense_4/bias f2 [128]
0.1466 -0.03223 0.1095 -0.2112 0.667 0.1572 0.247 -0.09094
-0.1561 0.4412 0.6313 -0.02632 -0.012825 -0.1304 0.516 0.298
-0.01222 0.4543 -0.393 0.6035 0.283 0.2903 -0.104 -0.11597
0.4158 0.2218 0.09125 0.0553 0.511 0.3247 0.2103 0.542
0.541 -0.01991 0.3706 0.3586 0.211 0.5435 -0.2754 -0.02106
0.275 0.3293 0.1959 0.2443 -0.4731 -0.02058 0.2688 -0.0913
0.4487 -0.1375 -0.413 0.57 0.2474 -0.506 -0.11053 0.4685
0.082 0.10724 0.2406 0.256 0.7925 0.6646 0.3633 -0.01384
0.3845 0.323 -0.02837 0.12024 0.3904 -0.12213 0.6577 0.188
0.4456 0.1956 0.321 -0.1747 -0.01808 0.787 0.3972 -0.006233
0.4639 -0.05618 0.3877 0.2266 -0.1704 -0.014885 0.3413 0.0763
0.1481 0.3162 -0.4143 0.1995 -0.3418 0.3254 0.4255 -0.0044
0.1251 0.04004 0.5166 0.294 0.371 0.0736 0.3003 0.7544
0.03717 0.10034 0.1317 0.1615 0.1343 0.03583 0.1459 0.7466
0.1526 0.4026 0.495 0.1992 0.1709 -0.05487 0.2742 0.3503
0.0889 -0.389 0.3513 0.7095 0.8296 0.04132 0.165 0.4253
00000000: b130 20a8 022f c2b2 5639 0831 e733 d2ad
00000010: ffb0 0f37 0d39 bda6 91a2 2cb0 2138 c534
00000020: 42a2 4537 4ab6 d438 8734 a534 a8ae 6caf
00000030: a736 1933 d72d 142b 1738 3235 bb32 5638
00000040: 5438 19a5 ee35 bd35 c132 5938 68b4 64a5
00000050: 6634 4535 4532 d133 92b7 45a5 4d34 d8ad
00000060: 2e37 66b0 9cb6 8f38 eb33 0cb8 13af 7f37
00000070: 3f2d dd2e b333 1934 573a 5139 d035 16a3
00000080: 2736 2b35 43a7 b22f 3f36 d1af 4339 0432
00000090: 2137 4232 2335 97b1 a1a4 4c3a 5b36 629e
000000a0: 6c37 31ab 3436 4033 74b1 9fa3 7635 e22c
000000b0: bd30 0f35 a1b6 6232 78b5 3535 cf36 819c
000000c0: 0130 2029 2238 b434 f035 b62c ce34 093a
000000d0: c228 6c2e 3730 2b31 4c30 9628 ab30 f939
000000e0: e230 7136 ec37 6032 7831 06ab 6334 9b35
000000f0: b12d 39b6 9f35 ad39 a33a 4a29 4831 ce36

sequential_2/dense_4/MatMul f2 [128, 784]
0.05927 0.07495 -0.0337 0.006317 0.004547 0.00822 0.00762 -0.05563
-0.06067 -0.05884 -0.0693 0.0346 0.05106 -0.06204 -0.001171 -0.0982
-0.00695 -0.11694 -0.006916 -0.06186 0.0749 -0.03995 0.06082 -0.086
-0.0752 -0.00355 0.004826 -0.01172 0.08014 -0.03702 -0.08105 0.007343
0.039 0.07697 0.01837 -0.02095 0.0141 0.01842 -0.0576 -0.06555
-0.10425 0.007298 -0.06174 0.01534 -0.0851 0.04715 0.03522 0.03653
-0.05548 -0.04745 0.00575 0.00474 -0.05066 0.07306 0.04846 -0.01064
0.0724 -0.03033 0.07935 -0.0403 -0.0776 0.0491 0.01557 -0.06155
-0.008575 -0.10425 0.006073 -0.0676 -0.06537 -0.05585 -0.09595 -0.05142
-0.0842 0.0004582 0.05084 -0.03442 -0.05933 -0.0512 -0.02493 -0.0774
0.02907 -0.014114 -0.001247 -0.02007 -0.07135 0.02649 -0.01668 0.0202
0.01794 0.03412 -0.01782 0.04443 -0.010765 -0.02618 0.01512 -0.02364
0.02672 -0.08026 0.002567 -0.0477 -0.0575 -0.02637 -0.003405 -0.0524
0.05212 -0.01927 -0.005493 0.01232 -0.01179 0.005444 -0.0462 -0.02235
-0.04163 0.05 0.02414 0.02191 -0.0446 0.001309 -0.0634 0.01604
0.04245 -0.0652 -0.0371 -0.06335 -0.0758 -0.02225 -0.00945 -0.0975
0.06274 -0.04242 0.00106 0.02806 -0.0182 0.03253 -0.07367 0.0433
0.03973 -0.04547 0.0176 0.0505 -0.06995 -0.0649 0.07776 -0.003105
-0.01764 -0.04767 0.00723 0.061 -0.03867 -0.01907 -0.0953 -0.0112
0.0004764 0.0357 -0.05576 0.00631 -0.079 -0.09296 -0.05164 0.01076
0.004944 -0.03552 -0.03696 -0.0422 0.03026 0.02316 -0.0682 0.0083
0.02878 0.0328 -0.0748 -0.068 -0.0465 -0.07733 -0.06238 0.03114
-0.0738 0.01918 0.004272 -0.05234 0.02994 -0.006325 -0.1172 -0.05698
-0.0866 -0.0791 -0.09015 -0.0064 -0.08325 -0.02539 0.0333 -0.0629
0.001602 -0.08044 -0.03348 0.05222 0.0524 0.0831 -0.06177 -0.02318
0.0406 0.05994 0.009605 0.01098 -0.02597 -0.00998 -0.0716 -0.0487
-0.1004 -0.02185 -0.1022 -0.1057 -0.11804 0.01868 0.0237 -0.013596
-0.00802 0.01884 -0.0944 0.02136 0.0738 0.02943 -0.0896 0.05
-0.04874 -0.03574 0.02486 -0.0565 -0.1573 0.002728 -0.0857 -0.0343
-0.1259 -0.1274 -0.1565 -0.1493 -0.0936 -0.1021 -0.1514 -0.1796
-0.2208 -0.2466 -0.1956 0.02531 -0.04688 -0.03604 -0.1067 0.01047
0.04364 -0.0925 -0.1104 0.06824 0.05402 0.0316 -0.06573 0.007565
00000000: 962b cc2c 50a8 781e a81c 3520 ce1f 1fab
00000010: c4ab 88ab 6fac 6e28 892a f1ab cc94 49ae
00000020: 1e9f 7caf 159f ebab cb2c 1da9 c92b 81ad
00000030: d0ac 459b f11c 00a2 212d bda8 30ad 851f
00000040: fe28 ed2c b424 5da5 3823 b724 5fab 32ac
00000050: acae 791f e7ab db23 72ad 092a 8228 ad28
00000060: 1aab 13aa e31d db1c 7caa ad2c 342a 73a1
00000070: a22c c4a7 142d 29a9 f7ac 492a f923 e1ab
00000080: 64a0 acae 381e 54ac 2fac 26ab 24ae 95aa
00000090: 64ad 820f 822a 68a8 98ab 8eaa 62a6 f4ac
000000a0: 7127 3aa3 1c95 23a5 91ac c826 45a4 2c25
000000b0: 9824 5e28 90a4 b029 83a1 b4a6 be23 0da6
000000c0: d726 23ad 4219 1baa 5cab c0a6 f99a b5aa
000000d0: ac2a efa4 a09d 4f22 09a2 931d eaa9 b9a5
000000e0: 54a9 662a 2e26 9c25 b5a9 5d15 0fac 1b24
000000f0: 6f29 2cac c0a8 0eac daac b2a5 d7a0 3dae
00000100: 042c 6ea9 5714 2f27 a9a4 2a28 b7ac 8b29
00000110: 1629 d2a9 8124 772a 7aac 27ac fa2c 5c9a
00000120: 84a4 1aaa 671f cf2b f3a8 e2a4 19ae bca1
00000130: ce0f 9228 23ab 761e 0ead f3ad 9caa 8221
00000140: 101d 8ca8 bba8 67a9 bf27 ee25 5dac 4020
00000150: 5e27 3328 caac 5aac f4a9 f3ac fcab f927
00000160: b9ac e924 601c b3aa aa27 7a9e 80af 4bab
00000170: 8bad 10ad c5ad 8e9e 54ad 80a6 4328 07ac
00000180: 9016 26ad 49a8 af2a b52a 522d e8ab efa5
00000190: 3229 ac2b eb20 9f21 a6a6 1ca1 95ac 3caa
000001a0: 6dae 98a5 8aae c4ae 8eaf c824 1126 f6a2
000001b0: 1ba0 d324 0bae 7825 b92c 8927 bcad 662a
000001c0: 3daa 93a8 5d26 3bab 09b1 9619 7cad 64a8
000001d0: 07b0 14b0 02b1 c7b0 fead 89ae d8b0 bfb1
000001e0: 11b3 e4b3 42b2 7b26 00aa 9da8 d4ae 5c21
000001f0: 9629 ecad 11af 5e2c ea2a 0b28 35ac bf1f

sequential_2/dense_5/MatMul f2 [10, 128]
0.10547 -0.1737 -0.0552 0.05655 0.1368 -0.485 0.1239 0.04974
-0.3535 0.1764 0.08405 -0.12067 -0.1249 0.1201 -0.6587 -0.2483
-0.0542 0.2542 -0.04935 0.1656 -0.01396 -0.0466 0.2676 0.03766
-0.585 -0.468 0.2172 0.1321 0.03766 -0.3174 -0.01308 -0.3054
0.12415 0.0592 0.5186 -0.2235 -0.0866 0.1375 -0.05417 0.0406
-0.548 -0.2007 -0.1604 0.485 -0.1768 -0.001218 0.02731 -0.0555
-0.218 -0.12427 0.1377 0.1522 0.1362 0.2874 0.2358 0.2954
0.07245 0.0666 -0.08154 -0.2255 0.1296 -0.3276 -0.0789 0.0845
-0.8413 0.3247 -0.04742 -0.1844 -0.0736 0.002686 -0.2651 0.00983
0.07623 -0.2954 -0.313 -0.009865 -0.143 -0.3052 -0.9165 -0.003906
0.1984 0.122 -0.10004 -0.3206 -0.3425 0.03757 0.1694 -0.18
-0.616 -0.005486 0.0713 0.04364 -0.323 -0.4446 -0.02336 -0.044
0.1348 -0.02998 -0.2201 0.1453 0.0918 0.09656 0.09467 0.1217
-0.08545 -0.1069 0.134 -0.368 -0.4927 -0.3662 -0.8867 0.1827
0.0965 -0.07086 0.1193 0.01495 0.1311 -0.3044 -0.41 -0.1278
0.485 0.1815 -0.2166 0.2747 -0.785 0.1169 -0.1439 0.1178
-0.344 0.0724 0.354 0.09235 0.03098 -0.4072 0.4004 0.12274
-0.983 -0.4392 -0.5557 0.1815 0.1729 -0.1797 -0.312 -1.386
0.07745 -0.481 -0.0495 -1.189 0.2095 0.2098 -0.02553 0.1877
-0.4458 -0.07495 -0.01659 0.05893 -0.5854 -0.0207 0.1649 0.1395
-0.413 -0.02208 -0.3918 -0.749 0.1057 0.1147 -0.328 -0.02788
-0.2983 -0.61 -0.1338 -0.4258 0.105 0.02022 -0.3699 0.1359
-0.1335 0.2476 -0.1247 -0.4731 -0.187 0.09955 -0.0812 -0.506
-0.1002 0.2462 -0.1039 -0.221 0.1569 -0.1251 -0.522 -0.1324
-0.5215 -0.8755 0.09814 -0.0545 -0.4102 0.3506 0.4146 0.502
-0.6943 0.4307 -0.4993 0.1913 0.0501 -1.057 -1.107 0.0511
-0.1304 -0.12164 -0.3137 -0.3306 0.748 0.1124 -0.0278 0.3335
-0.732 -0.4763 0.3333 -0.11005 -0.02217 -0.3586 -0.0764 0.602
-0.07745 -0.3813 -0.365 -0.06137 -0.2925 -0.1682 -0.34 -0.206
-0.02448 -0.003181 -0.01518 0.6855 0.56 -0.1936 0.4043 -0.4448
0.1244 -0.3838 0.1711 0.2482 -0.01243 -0.776 -0.09607 0.03586
-0.284 0.02309 0.01141 -0.2893 -0.1831 0.2808 -0.2566 -0.3918
00000000: c02e 8fb1 11ab 3d2b 6130 c3b7 ee2f 5e2a
00000010: a8b5 a531 612d b9af feaf b02f 45b9 f2b3
00000020: f0aa 1134 51aa 4d31 26a3 f7a9 4834 d228
00000030: aeb8 7db7 f332 3a30 d228 14b5 b2a2 e3b4
00000040: f22f 942b 2638 27b3 8bad 6630 efaa 3229
00000050: 62b8 6cb2 22b1 c337 a8b1 fd94 fe26 1bab
00000060: fab2 f4af 6830 df30 5c30 9934 8c33 ba34
00000070: a32c 432c 38ad 37b3 2630 3eb5 0dad 682d
00000080: bbba 3235 12aa e7b1 b6ac 8019 3eb4 0821
00000090: e12c bab4 02b5 0da1 93b0 e2b4 55bb 009c
000000a0: 5932 cf2f 67ae 21b5 7bb5 cf28 6c31 c3b1
000000b0: eeb8 9e9d 902c 9629 2bb5 1db7 fba5 a2a9
000000c0: 5030 ada7 0bb3 a630 e02d 2e2e 0f2e ca2f
000000d0: 78ad d7ae 4a30 e3b5 e2b7 dcb5 18bb d931
000000e0: 2d2e 89ac a32f a823 3230 dfb4 8fb6 17b0
000000f0: c337 cf31 eeb2 6534 48ba 7b2f 9bb0 8a2f
00000100: 81b5 a22c aa35 e92d ee27 84b6 6836 db2f
00000110: ddbb 07b7 72b8 cf31 8831 c0b1 feb4 8bbd
00000120: f52c b2b7 56aa c2bc b432 b732 89a6 0232
00000130: 22b7 ccac 3fa4 8b2b afb8 4da5 4731 7730
00000140: 9cb6 a7a5 45b6 feb9 c42e 572f 3fb5 23a7
00000150: c6b4 e1b8 48b0 d0b6 b82e 2d25 ebb5 5930
00000160: 46b0 ec33 fbaf 92b7 fcb1 5f2e 32ad 0cb8
00000170: 6aae e133 a6ae 12b3 0531 01b0 2db8 3db0
00000180: 2cb8 01bb 482e faaa 90b6 9c35 a236 0438
00000190: 8eb9 e436 fdb7 1f32 6a2a 3abc 6ebc 8a2a
000001a0: 2cb0 c9af 05b5 4ab5 fc39 322f 1ea7 5635
000001b0: dbb9 9fb7 5535 0baf ada5 bdb5 e4ac d138
000001c0: f5ac 1ab6 d7b5 dbab aeb4 62b1 71b5 98b2
000001d0: 44a6 849a c6a3 7c39 7b38 32b2 7836 1eb7
000001e0: f62f 24b6 7a31 f133 5da2 35ba 26ae 9728
000001f0: 8bb4 e925 d821 a1b4 dcb1 7e34 1bb4 45b6
