tf_lite_model.tflite (tflite, 408632 bytes, 4 tensors)

dense_1/bias f4 [10]
00000000: 4577 d239 7954 b7be 0149 4e3e de17 9a3e
00000010: d494 ccbe cae1 f93d 83c0 1d3e 3351 273e
00000020: af06 18be 7aa8 d5be
0.00040143184 -0.35806635 0.20145036 0.30096334 -0.39957297 0.12201269 0.15405469 0.16339569
-0.148463 -0.417301

dense/bias f4 [128]
00000000: 417c f03e 89c2 61bd e71a a4bc baf8 283e
00000010: 7c1f 2c3f 4af6 03bf ccda c83e 9528 6b3e
00000020: 4ad7 19be bc40 9b3e 2b48 80bc 12b6 183f
00000030: d26a 3f3e 0fab f63e aeef ab3e 24c4 73bc
00000040: 025c 803e 6ead 933e 4e30 13be c439 c93d
00000050: fb50 b23e a760 823e 6add ca3d 4b30 a73e
00000060: 6776 13be b119 3f3f 003d 5c3e 89ee a83e
00000070: ade4 c43e 5d07 a83e 9c38 a13d 7426 aa3e
00000080: b923 c43e e86e 043f 83d9 d7bd 4352 df3d
00000090: ccfc 8d3d 8c31 a83d d147 d03e 99af 52be
000000a0: a0a6 abbe e0b8 6bbe 76d5 823e 62fb 8ebc
000000b0: d5d7 84be 574e 113f 38d8 e13e 9716 703e
000000c0: fd5f 86be 12ae 363e 7240 443f 2b5f 3a3e
000000d0: dcfc cdbc 4d65 203f 2568 773e 92cc 04be
000000e0: f423 223f b5a4 703e efca fbbc 3600 de3e
000000f0: ee5a 92bc 8486 043f f2a4 e5bd fe5e 823d
00000100: 529d 9e3e d210 c93e 9da1 d2bd 8775 e2be
00000110: 251b b23e 7d8b 40be f007 75bc bbc8 aa3e
00000120: 91bb e0be 7cee e2bc 81a5 b13e 9d4e c53e
00000130: cd83 f7bd f91c c43e f159 dc3c 4c93 eb3e
00000140: 2be4 64bd 4e58 e13e 5ff8 fc3e 24df 073f
00000150: 5af4 5fbc 2332 943e cd4a a1bc f3d4 19be
00000160: 0f01 983e 06d9 23bc 8a37 11be d35a e13d
00000170: 6671 4c3e 0cb7 a03e 684a 2c3e da29 1d3f
00000180: 8d6e 0f3f 76d9 933e 7b75 023f 7e01 693d
00000190: b96a 163d 877a 193d 32f6 be3e 2c52 a53e
000001a0: b531 e33e c755 c43e 83a3 b5be d47b 9a3e
000001b0: 6e6a 24be 816a dd3e 2f54 8f3e 660e b73e
000001c0: 229b 0fbf 4cd8 2ebc e2aa 073f 5865 193f
000001d0: e750 cd3e 745d 9d3e 6ade e73e 63bf ee3e
000001e0: 5750 ed3e 9fbe c0bc 8346 0a3e ae08 88bd
000001f0: 9c9c f63e 476c 47be 1c6f 9a3e 3084 9e3c
0.46969798 -0.055117164 -0.02003236 0.16501132 0.6723554 -0.5154768 0.3922943 0.229647
-0.15023533 0.30322826 -0.015659412 0.5965282 0.18693092 0.48177382 0.335813 -0.014878307
0.25070196 0.28843254 -0.14373896 0.09825471 0.34827408 0.25464365 0.09905513 0.32654032
-0.14400636 0.74648577 0.21507645 0.32994488 0.38455716 0.32818118 0.078721255 0.33232462
0.38308504 0.5173173 -0.10539534 0.10904362 0.06932983 0.08212575 0.40679792 -0.20574798
-0.33525562 -0.23019743 0.25553483 -0.017453853 -0.25945917 0.5676016 0.44110274 0.23446117
-0.26245108 0.1783984 0.76660836 0.18200366 -0.025144987 0.6265457 0.24160822 -0.12968662
0.6333611 0.23500331 -0.030736415 0.43359536 -0.017865624 0.51767755 -0.112131014 0.063657746
0.309794 0.39270645 -0.102847315 -0.4423029 0.34786335 -0.1880321 -0.014955506 0.3335627
-0.43893102 -0.027701609 0.34696582 0.3853654 -0.12085686 0.38303354 0.026898356 0.46010816
-0.05588166 0.44012684 0.49408242 0.5307486 -0.013669098 0.289445 -0.019688988 -0.1502264
0.29688308 -0.010000473 -0.14181343 0.110036515 0.19965133 0.31389654 0.16825259 0.61391985
0.5602806 0.28876847 0.5096051 0.05688619 0.036722872 0.037470367 0.37297207 0.32289255
0.4437386 0.38346693 -0.35476312 0.30172598 -0.16056225 0.4324532 0.27993914 0.35753173
-0.5609609 -0.010671686 0.5299512 0.59920263 0.40100786 0.30735362 0.45286876 0.4663039
0.46350357 -0.023528395 0.1350346 -0.066422805 0.48166358 -0.19474898 0.30162895 0.019350141

sequential/dense/MatMul f4 [128, 784]
00000000: 358e 80bd 1de6 5ebe d733 5abd c9bb 273e
00000010: 5573 eabd d78c 52be a93f 7fbe 0412 f03d
00000020: 1c96 3abd 33b8 aebd f4e6 fd3d adb2 823d
00000030: ffc0 cabe 90dd 4fbe 5333 30be 608e 44be
00000040: 3384 bd3d f14f 14bd bbaa 223e 6787 ce3b
00000050: 5d16 7abd f43a 4fbd 537f 1cbe 1bc7 e8bd
00000060: 9397 7a3e 26c2 1f3e a9e4 88bd a286 b1bd
00000070: fd49 c1bc c2e3 6dbd 1a9a 343e c0fc 433e
00000080: be7e 193e 7325 03bd 8f0d a4bc d9ed 7f3e
00000090: e6b7 bd3d ceb7 5fbd cb41 0b3e 5adb 953d
000000a0: 80b0 71bd 1b3c 3bbd 4827 af3a fd1c 003e
000000b0: 6c43 573e 40ca 45bd 516b 4ebb e5d0 b33d
000000c0: 909d ae3d 75ed 633e 579c 5d3d c82e f03d
000000d0: bdf9 573e 9735 883e fc62 6d3e 1c1d 893d
000000e0: d628 35bd 1951 2abd 2ed3 a13d de95 963e
000000f0: 09be ed3c 9ef0 8a3d 14ed 9f3d d252 993d
00000100: a772 9f3d 37ae dfbd 085b 04bd a001 f5bd
00000110: 5497 5a3d f3f8 a53d d753 ca3d 335b e73d
00000120: 49dd 3abd 9ba8 32be d4ae 3dbe 1402 e2bc
00000130: 0f3d 99bd feaf 3b3d 9154 2b3e a97e e43d
00000140: f6f8 843e 3a4c ab3d 34a6 203e 98af 253e
00000150: 95d0 99bd 2fd0 60bd 2fa8 133e e11b 183e
00000160: 9feb 953d baec 9d3d fa5d ec3d c3cd ee3d
00000170: 0f5d c43d 891c 3bbe c4db e4bd ba72 e1bd
00000180: c2fa 65bd 787c f2bd 609f a0bd 29d3 17be
00000190: f80c f1bd bb19 61be 1c61 f3bd a8bc 1f3d
000001a0: 067b 1b3e 23ab 1b3d eef4 083e 2d46 3b3e
000001b0: f592 4c3e d276 be3d 30da 283e a893 8d3e
000001c0: 38ff 123e 3648 b3bc c4d6 763e 6a7f 8c3e
000001d0: 5822 c73d 7678 3b3e 7024 b4bb e356 bfbd
000001e0: 6bbe 90bc f710 fabd acf4 03be a487 4bbe
000001f0: dcdc 26be 8c35 b2bd 2e10 4bbd ed69 7ebe
00000200: 31ec a2bd bc5f 95be 46de 81be aa57 9bbd
00000210: 4404 8f3d 55ed 103e fc48 a53c 0e67 87bd
00000220: 99f4 7c3e 34f3 ef3d 152a 10be 6f88 1e3c
00000230: aadd 843d 18fe 4e3d b1e4 543e 5750 993c
00000240: 4606 c83d 44f7 a43d ab22 afbc 3d84 dcbd
00000250: 381b bfb9 adee 13be ef80 9fbe df92 98bc
00000260: dd03 6ebd 0fab b3bd de44 d2bd a169 51be
00000270: 6b2b cbbc cca4 73be 8365 61be d1cd 9cbd
00000280: 25e4 a53c 59c5 9f3c 6e33 99bc b0cd c13c
00000290: dd0d 0bbc f3ad 3f3d 980f 96bd 9dd6 de3c
000002a0: 2080 3b3e c79a a23d 667f d53d 8b3a 89bd
000002b0: b088 6d3d 6a4d 8e3d 974b 643d 67e1 073e
000002c0: e206 86bd 36a7 00be 42c0 10be f2e6 41bc
000002d0: 24ab ce3d 0e0f 06be 9142 acbd d26e 603d
000002e0: 3d75 a3bd 42e5 a9bd 7fcc 6abd 7892 243d
000002f0: a4f5 cdbb af7d f3bb 892a 08bd 1d86 b9ba
00000300: 66a9 14bd d62c 9f3c 1c30 fd3d cfbb 1e3e
00000310: d4a4 543e 0502 063e ae66 ca3c ed96 d53d
00000320: 6422 bdbd a5fc c3bd bfd8 d1bc a3d8 0bbe
00000330: 38f2 eebd 2e6b cfbd 9da4 753d e8a7 df3d
00000340: 21f5 e33c 6833 823c f48b 02bd 3b1b 7b3d
00000350: 0a98 eabc bfbe ec3d 1e75 043e ba37 f03d
00000360: 14c4 79bd 56ea 98be 41b4 fbbd 509f 86bc
00000370: 07ff 64bc ddfb 96bd 3fee 31be e922 663d
00000380: 537b 283e 5e58 7b3d e59f 153e 759b 8a3c
00000390: bfa9 b43d 8e57 e8bd 619a ebbd fdb3 2cbc
000003a0: 4f9d c43d 27bb 0e3e fb92 ea3d 8b1c 073e
000003b0: 68f7 0e3e 897a ed3c e65d 203e 4e28 0b3e
000003c0: 2a95 2c3e 51f9 d93e 5739 913e 0718 8b3c
000003d0: 3a46 51be 6974 e0be ad08 adbe 8e3f 713a
000003e0: fdd1 3c3d 3a6a ecbd b160 85be d806 7b3e
000003f0: 6a8e 2f3e ef1a 0f3d 9de3 1f3e 2fea 373e
-0.06277124 -0.21767469 -0.053272095 0.16380228 -0.11447779 -0.20561539 -0.24926628 0.11722186
-0.04555331 -0.08531227 0.123975664 0.06381736 -0.3960037 -0.20299363 -0.17207079 -0.19194937
0.092537306 -0.03620905 0.15885441 0.0063027623 -0.061056484 -0.05059333 -0.15282945 -0.11366101
0.24471883 0.15601406 -0.066842385 -0.08668257 -0.02359485 -0.058078535 0.1763691 0.19139385
0.14989755 -0.032018136 -0.020025996 0.24993075 0.092635915 -0.05461865 0.13599317 0.073172286
-0.059006214 -0.045711618 0.0013363147 0.12511058 0.21021813 -0.048288584 -0.003149707 0.08780078
0.085261464 0.22258551 0.054104175 0.11727673 0.21091361 0.26603386 0.23182291 0.06695005
-0.044228397 -0.041581247 0.079016075 0.29411215 0.02902128 0.06784175 0.07808891 0.074865
0.0778554 -0.10921901 -0.032313377 -0.119632006 0.053366974 0.08104124 0.098792724 0.11296692
-0.04562119 -0.1744713 -0.18523723 -0.027588882 -0.07482349 0.045822136 0.16731478 0.11156971
0.25971192 0.083641484 0.15688401 0.16180265 -0.07510487 -0.05488604 0.14419626 0.14854385
0.07320332 0.07711168 0.11541362 0.1166034 0.09588062 -0.18272604 -0.111747295 -0.110082105
-0.056147344 -0.11840147 -0.07842898 -0.14826645 -0.11770052 -0.21982472 -0.118837565 0.038998276
0.15183648 0.038005006 0.13374683 0.18288489 0.19977935 0.09300007 0.16489482 0.27651715
0.1435517 -0.021885019 0.24105364 0.2744096 0.097233474 0.18307671 -0.0054975078 -0.09342744
-0.017668923 -0.12210267 -0.12886304 -0.19875962 -0.16295189 -0.087016195 -0.049575977 -0.24845095
-0.07955206 -0.29174602 -0.25364894 -0.0758508 0.069832355 0.14153035 0.020176403 -0.06611453
0.24702682 0.11716309 -0.14078553 0.009676083 0.064875916 0.05053529 0.20790364 0.018715067
0.097668216 0.08054975 -0.021378836 -0.1076741 -0.00036450638 -0.14446516 -0.31153056 -0.018624721
-0.058109153 -0.08772861 -0.102670416 -0.2045045 -0.024800977 -0.23793334 -0.2201138 -0.07656444
0.02025039 0.019503282 -0.018701281 0.02365765 -0.008487192 0.04679675 -0.07327193 0.027201945
0.18310595 0.07939678 0.1042469 -0.06700619 0.057991683 0.06948359 0.05573615 0.13269578
-0.065442815 -0.12563786 -0.1413584 -0.011834847 0.10091236 -0.1309168 -0.08411134 0.054793186
-0.07981346 -0.082956806 -0.05732393 0.040178746 -0.006285386 -0.007430754 -0.03324369 -0.0014154349
-0.036294363 0.01943056 0.12362692 0.15501331 0.20766002 0.13086708 0.024707165 0.104291774
-0.09235075 -0.095696725 -0.025616048 -0.13656859 -0.11667293 -0.10127865 0.05997144 0.109206975
0.027826848 0.015893653 -0.03187175 0.061305266 -0.028636951 0.115598194 0.12935302 0.11729379
-0.06097801 -0.29866284 -0.1229024 -0.016433388 -0.013976819 -0.07372258 -0.1737604 0.056185637
0.16453294 0.06136357 0.14611776 0.01691983 0.08821439 -0.11344825 -0.11504055 -0.010540959
0.09600317 0.1393858 0.114538155 0.13194482 0.13961565 0.028989093 0.1566082 0.13589594
0.16853777 0.42573026 0.2836406 0.01697923 -0.20436946 -0.43838814 -0.33795682 0.0009202891
0.046098698 -0.115436986 -0.26050332 0.2451433 0.1714417 0.034937795 0.15614171 0.17960428

sequential/dense_1/MatMul f4 [10, 128]
00000000: 3a24 083e bdd7 8c3d dfc4 e03d 226e 14bf
00000010: b835 e23d c6c8 f8bc e568 6c3d 731b 73be
00000020: e801 adbe e0ff 243e 2252 e13d d50a 6abd
00000030: 4a84 6e3d e45e adbd 251f 1ebe 98f4 b3bd
00000040: 5b54 1dbe ac9a 08be f839 a1bc 3396 a3be
00000050: 29fc 32bc bc5d 7e3e 9e3a 0b3e 43ea ad3d
00000060: d38e 15bf 79c4 a5bf 5771 fe3d f1e6 103e
00000070: 9267 42be 9df3 093e e9d2 11be d274 943e
00000080: 20b2 2a3e abec 123e 10d3 bc3d f252 d5bd
00000090: 6ed8 00bf 3838 743e acd3 a03e 95cd 853d
000000a0: 4f19 67be 4f8f 033d d59f f53d c3fb 65bd
000000b0: 0935 b6bc 6428 153e d138 393e ed22 9bbe
000000c0: b5b9 9f3d 366d cfbe 8b14 92be ce2b 8abd
000000d0: 9753 09be cfbb 8abe c791 e13d 9958 ff3c
000000e0: f3d5 933d fa39 20be 9ac7 b1bc d7fa 7e3c
000000f0: 3973 19bc f93f 4d3e 37a1 d83d c888 f13d
00000100: c46c e63d 06b6 ffbd 5b36 cf3c af5b 75be
00000110: 0016 79be a311 96be a23c e33b 7f02 fb3e
00000120: 0048 983d c8cd d7bd 9af8 833d e4c2 813d
00000130: 2255 d1bd fea9 81bd d95a 47bf 512b efbe
00000140: d4c1 483e 923f d5be 20d2 503e be99 543d
00000150: 78e5 acbd 1b31 bd3d 02e6 8c3d 9d75 593d
00000160: 593f b2be 014f 11bf 84ec 83bd d540 913e
00000170: 401c 46be 7728 03bd a617 8e3c 597b 343d
00000180: 1fec 22bf 34c2 fcbd 7691 dabe 513e acbe
00000190: 46be 68be e27d 883e 390f fdbc 86ef 65bf
000001a0: f36a 883d 58c4 2e3e 1703 fe3d e204 7ebe
000001b0: 7ac5 013c 6449 3d3d 6837 97bd 9a7a 7d3e
000001c0: 411c c93d 5779 b2bd ec27 433e 0076 433e
000001d0: b953 b9be aa7d 13bf 10d5 d5be b4ed f53c
000001e0: ec0f bfbe 1e10 ecbd d19b 0f3e 5e16 cb3d
000001f0: 6948 3bbd b1ae 483e 4a26 e43d f24c 9fbc
00000200: 1148 58be 00cd 043e 5cdc b93d ef49 17bd
00000210: 7491 713e f386 bc3e 4015 f23e 3ed6 12be
00000220: ff5e 49be 9f01 0fbf fa55 bbbd 9432 b4be
00000230: e407 84be d2a0 d6be fc08 a6bd 43dd 2b3e
00000240: eb7e a5be 0b99 3d3e 7f0f c7be bc49 02bc
00000250: 4899 5fbe 043c 133e ef04 bebe 91c9 0e3e
00000260: 8a68 b93e 42db fdbe 1b8f 08bf c613 8bbd
00000270: 59d9 f43d 10c6 433f a4db 5d3c d251 f33c
00000280: bb23 5cbe e3ed a9be 1b40 edbe 576a 013e
00000290: fec9 2e3f cfab 83be eee4 86be 749b 8bbe
000002a0: 64d5 973e a236 16be 9d63 993e 0411 e7bd
000002b0: 0051 b1bd 91c6 54be 9951 febd 8c77 a23e
000002c0: c4d7 ca3d 0a38 353d 0564 6ebf 7bf3 23be
000002d0: 3f4e 62bb 4569 59be 0890 f7be 30fd 513e
000002e0: 3213 8cbf 795a b53e 3242 85be 50d3 25bf
000002f0: 4ad5 dd3c 2c45 b83c 10c0 b33d 024a 373e
00000300: c04b 453e b963 813e 70c3 18bd cd52 0e3f
00000310: ddc1 8e3b a1ad 383d aa32 e93d 7e14 b03e
00000320: fe5c 6b3d f68a 8fbe 3841 03bf c52a 11bf
00000330: d2ea e43a 2eb0 be3c 4fd6 5d3e d9c2 9fbe
00000340: 9a28 ebbe b1a4 89bf 7f5e 643d d800 f6be
00000350: cd22 073e eb17 06be 32c1 ce3b 35e0 ea3d
00000360: 9613 5e3e 9fb8 f23e 57eb dc3e 430d acbe
00000370: 5df5 e83a debb c13d a956 053e 98f6 75bf
00000380: 2c94 b0be f1e0 aa3e b5d3 bcbd d2d5 42bf
00000390: 429f a9bd 3c9a d3be b86d d53d 9a36 2cbf
000003a0: c466 22bf 8c28 85be 9aa2 c03e 44f5 8e3c
000003b0: c04f e9bd 2f36 053e 2476 5a3e d8b3 04be
000003c0: b59b 593e 6981 1abe ccb1 d3bd e874 1b3e
000003d0: fb2e b3be a8f6 ab3e 2b5e 96bf cb93 f3be
000003e0: 6ff3 ccbe 7621 2a3e 824e 00bf d6dd 9abe
000003f0: 791a d8be c7e9 dfbe 991f f8be 1317 b13d
0.1329507 0.06877086 0.1097505 -0.5798055 0.11045402 -0.030369174 0.057717223 -0.2374094
-0.33790517 0.16113234 0.11001994 -0.057139236 0.05823163 -0.084653646 -0.15441568 -0.08786887
-0.1536421 -0.13340253 -0.019680962 -0.3195053 -0.0109243775 0.24840444 0.1359658 0.084919475
-0.5842106 -1.2950584 0.124239616 0.14150597 -0.18984821 0.13471837 -0.14240612 0.28995377
0.16669512 0.14348094 0.092199445 -0.10416211 -0.50330245 0.23849571 0.31411493 0.06533352
-0.22568248 0.03211909 0.11993376 -0.0561483 -0.022242086 0.14566189 0.1808808 -0.30300084
0.07799093 -0.4051301 -0.28531298 -0.06746636 -0.13410793 -0.27096412 0.11014133 0.031170176
0.07218542 -0.15647116 -0.021701623 0.015562735 -0.00936585 0.20043935 0.10577624 0.11793667
0.11251214 -0.1248589 0.025294473 -0.23960756 -0.24324799 -0.2931033 0.006934718 0.49025342
0.07435608 -0.105372965 0.06443901 0.063360006 -0.10221316 -0.063312516 -0.77873 -0.46712735
0.1960519 -0.41650063 0.20392656 0.051904432 -0.08442205 0.09237882 0.06879808 0.05309068
-0.34813955 -0.56761175 -0.06441596 0.28369775 -0.19346714 -0.032021012 0.01734526 0.044062946
-0.6364154 -0.12341729 -0.42689103 -0.33641294 -0.22728834 0.2665854 -0.030891048 -0.8981861
0.06661024 0.17067087 0.12402933 -0.2480655 0.007920617 0.04621257 -0.07383615 0.247538
0.09819842 -0.0871455 0.19058198 0.19087982 -0.36196688 -0.57613623 -0.41764116 0.030020572
-0.37316835 -0.115265116 0.14024283 0.099163756 -0.045723353 0.1959789 0.111401156 -0.01944587
-0.21121241 0.12968826 0.09075233 -0.036935743 0.23590642 0.36821708 0.47281837 -0.1433954
-0.19665144 -0.5586185 -0.09147258 -0.35194838 -0.2578727 -0.4191957 -0.081071824 0.16783623
-0.32323393 0.18515413 -0.3887901 -0.00795215 -0.21835816 0.14378363 -0.3711314 0.13944079
0.3621257 -0.49581343 -0.5334336 -0.06790881 0.11955518 0.76474094 0.013541136 0.0297021
-0.21498005 -0.33189306 -0.4633797 0.12638222 0.68276966 -0.25717017 -0.26346534 -0.2726704
0.29654992 -0.14669278 0.2995881 -0.11282542 -0.08658028 -0.20778872 -0.12417907 0.31731832
0.09904435 0.044242896 -0.9312137 -0.16010849 -0.0034531502 -0.21231563 -0.48352075 0.2050674
-1.0943358 0.35420588 -0.26027066 -0.6477556 0.027079243 0.022493921 0.087768674 0.17899325
0.19267178 0.25271395 -0.03729576 0.55595094 0.0043566064 0.04508746 0.113866165 0.34390634
0.05746173 -0.28035706 -0.5127139 -0.56705886 0.0017465001 0.023277368 0.21663783 -0.31203344
-0.45929414 -1.0753385 0.05575418 -0.4804752 0.13196869 -0.13095061 0.006309652 0.11468545
0.21687159 0.4740648 0.431483 -0.33603868 0.0017773319 0.09459661 0.1302134 -0.960794
-0.34488046 0.33374742 -0.092200674 -0.76107514 -0.08282329 -0.4132861 0.10421318 -0.67270815
-0.6343806 -0.26007497 0.37624055 0.017450936 -0.11392164 0.1300895 0.2133413 -0.1295923
0.21250804 -0.15088429 -0.103366464 0.15181315 -0.3499678 0.3358662 -1.1747488 -0.47573695
-0.40029475 0.16614327 -0.50119793 -0.30247372 -0.42207697 -0.43733045 -0.48461607 0.08646979
