tf_lite_model.tflite (tflite, 408664 bytes, 4 tensors)

dense_5/bias f4 [10]
-0.036090177 -0.3747922 0.19528894 0.3021795 -0.30395272 0.0709912 0.11738734 0.19789256
-0.103999175 -0.46081254
00000000: 4bd3 13bd c3e4 bfbe d3f9 473e 45b7 9a3e
00000010: b19f 9bbe d663 913d c668 f03d 59a4 4a3e
00000020: 85fd d4bd 9fef ebbe

dense_4/bias f4 [128]
0.14661491 -0.032229945 0.10952411 -0.21120709 0.66688544 0.15728103 0.24691221 -0.09095939
-0.15615247 0.44113928 0.63141394 -0.026325297 -0.0128255645 -0.13032877 0.51615894 0.2981567
-0.012224571 0.4543624 -0.3929774 0.6035824 0.28304693 0.29022616 -0.10400181 -0.115939215
0.41578135 0.22183281 0.0912617 0.05529928 0.5111937 0.32461432 0.21027586 0.5421646
0.5411157 -0.019905427 0.37051892 0.35860294 0.21110298 0.543653 -0.27536774 -0.021058396
0.27491146 0.3293254 0.19594568 0.24429813 -0.4730986 -0.02058635 0.2687681 -0.09131378
0.4488304 -0.13750194 -0.41300848 0.5697647 0.24744765 -0.5057224 -0.11053671 0.46838847
0.08199369 0.10724825 0.24055883 0.25621483 0.79223764 0.6646318 0.3632141 -0.013841118
0.38439956 0.32289273 -0.028364487 0.120210975 0.39031708 -0.12213102 0.657585 0.1880184
0.44543675 0.195579 0.32097283 -0.17470361 -0.018085042 0.7870958 0.3972897 -0.006235116
0.46389344 -0.056191847 0.38771564 0.22659045 -0.1704143 -0.014883731 0.34123328 0.07630605
0.14808902 0.31610754 -0.41427705 0.19948183 -0.34175548 0.32534072 0.4254372 -0.004398917
0.1251029 0.040053926 0.5168272 0.29400384 0.37112507 0.07362989 0.3002291 0.7544403
0.037170157 0.10033036 0.13171911 0.16152608 0.1342907 0.035829097 0.14583918 0.74669003
0.15256247 0.4026323 0.4951113 0.19923419 0.17087902 -0.05486664 0.27416515 0.3503736
0.08895619 -0.38899437 0.3512427 0.7096852 0.82942516 0.04131615 0.16504206 0.42535314
00000000: 3822 163e 8c03 04bd 2d4e e03d ac46 58be
00000010: 01b9 2a3f 470e 213e 8ed6 7c3e eb48 babd
00000020: 6fe6 1fbe 02dd e13e 58a4 213f 26a8 d7bc
00000030: 5122 52bc e874 05be fe22 043f ffa7 983e
00000040: 9149 48bc 30a2 e83e 5534 c9be 6084 1a3f
00000050: 87eb 903e 8698 943e e7fe d4bd 8a71 edbd
00000060: 4be1 d43e 2428 633e 6ae7 ba3d 7f81 623d
00000070: 97dd 023f d933 a63e 8e52 573e 4dcb 0a3f
00000080: 8f86 0a3f b510 a3bc a8b4 bd3e ce9a b73e
00000090: 612b 583e d82c 0b3f 00fd 8cbe a882 acbc
000000a0: 32c1 8c3e 579d a83e fca5 483e 4a29 7a3e
000000b0: fb39 f2be b4a4 a8bc f99b 893e b802 bbbd
000000c0: 19cd e53e 4fcd 0cbe d975 d3be 19dc 113f
000000d0: eb62 7d3e 0677 01bf 1261 e2bd 9dd0 ef3e
000000e0: 4fec a73d f8a4 db3d 0e55 763e 972e 833e
000000f0: 16d0 4a3f 4f25 2a3f 33f7 b93e dbc5 62bc
00000100: 05d0 c43e 3252 a53e a45c e8bc 2c31 f63d
00000110: a4d7 c73e d41f fabd 7e57 283f e587 403e
00000120: 4910 e43e dd45 483e 8d56 a43e 81e5 32be
00000130: 1527 94bc 1c7f 493f 8e69 cb3e f24f ccbb
00000140: 7183 ed3e 6c29 66bd aa82 c63e 5407 683e
00000150: 1681 2ebe e4da 73bc 21b6 ae3e 5946 9c3d
00000160: a6a4 173e d9d8 a13e 1f1c d4be f744 4c3e
00000170: 93fa aebe 0f93 a63e e8d2 d93e ca24 90bb
00000180: fa1a 003e 960f 243d ca4e 043f ac87 963e
00000190: 1b04 be3e 45cb 963d a1b7 993e 0023 413f
000001a0: bc3f 183d 017a cd3d 60e1 063e 1867 253e
000001b0: 8083 093e 88c1 123d de56 153e 1427 3f3f
000001c0: 5639 1c3e d225 ce3e 3a7f fd3e 0c04 4c3e
000001d0: e9fa 2e3e d8bb 60bd 605f 8c3e 2b64 b33e
000001e0: aa2e b63d 452a c7be 15d6 b33e eead 353f
000001f0: 3555 543f 203b 293d c900 293e e3c7 d93e

sequential_2/dense_4/MatMul f4 [128, 784]
0.05925963 0.07494932 -0.033676818 0.0063176304 0.0045482293 0.008219704 0.0076227486 -0.05561962
-0.06067762 -0.05882509 -0.069282494 0.034620624 0.05104544 -0.06203172 -0.001171338 -0.098230325
-0.006952264 -0.11696291 -0.0069169365 -0.061867923 0.074902974 -0.039949533 0.0608154 -0.08602555
-0.075178385 -0.0035501816 0.004824378 -0.011717655 0.08014374 -0.03700782 -0.08106656 0.007341996
0.03900802 0.076945744 0.018366996 -0.020953491 0.014102596 0.018421847 -0.057591267 -0.06555051
-0.10422329 0.0072985473 -0.061724875 0.015344417 -0.085090555 0.047138557 0.035208777 0.036540005
-0.05549179 -0.04744218 0.0057503446 0.0047414172 -0.050668195 0.073038615 0.048468076 -0.010640822
0.07236879 -0.030340303 0.07932735 -0.04031295 -0.07760415 0.049107306 0.015568994 -0.061556958
-0.008578911 -0.10421896 0.006074137 -0.06765494 -0.06538366 -0.05584825 -0.095966555 -0.05142222
-0.08423592 0.00045834034 0.050835617 -0.03442507 -0.059324276 -0.051213853 -0.02493922 -0.07736751
0.02906469 -0.014112744 -0.0012476256 -0.020071745 -0.07137977 0.026495866 -0.016682923 0.020195395
0.017938592 0.0341245 -0.017827319 0.04442487 -0.010768665 -0.026177399 0.015123716 -0.023640377
0.026717486 -0.08024381 0.0025673232 -0.047695685 -0.057487193 -0.02636093 -0.0034051312 -0.05238654
0.052110415 -0.019276988 -0.005493594 0.012320786 -0.011788671 0.005442381 -0.04621199 -0.022353083
-0.041638646 0.04998683 0.024141781 0.02191579 -0.044587642 0.0013097568 -0.06341678 0.016042465
0.04246214 -0.065167874 -0.037098352 -0.06335989 -0.075828 -0.022253074 -0.009454242 -0.09747859
0.062771685 -0.04241254 0.0010592199 0.028060978 -0.018205691 0.032535072 -0.07363922 0.043310218
0.039745998 -0.045461617 0.017585916 0.05050298 -0.06995553 -0.06485486 0.077758834 -0.0031047016
-0.01763179 -0.047655914 0.0072272047 0.061013173 -0.038666792 -0.019077895 -0.09528707 -0.011198756
0.00047626445 0.035699755 -0.0557601 0.006310677 -0.078989044 -0.09296578 -0.051631458 0.010761163
0.0049450556 -0.03551849 -0.03694994 -0.042209353 0.030261649 0.02316312 -0.068180524 0.008298822
0.028782329 0.03279545 -0.07485183 -0.06800337 -0.046508126 -0.077317856 -0.062365394 0.03113784
-0.07378806 0.019179804 0.0042723906 -0.052344542 0.029940426 -0.006324878 -0.117166795 -0.05697139
-0.086588934 -0.079116546 -0.09012166 -0.006399895 -0.083267055 -0.025385257 0.033303734 -0.06290021
0.0016018301 -0.08046661 -0.033470612 0.05221477 0.052413106 0.08313259 -0.061754014 -0.023171132
0.040588763 0.05994625 0.009605576 0.010979819 -0.025975648 -0.009980466 -0.07162283 -0.048706397
-0.10042566 -0.021858115 -0.10217601 -0.105726056 -0.118045874 0.018674314 0.023694465 -0.013596218
-0.008015335 0.018843861 -0.094391964 0.021364987 0.073767595 0.029433722 -0.08958869 0.049986307
-0.048742257 -0.03573113 0.024850368 -0.056498792 -0.15734218 0.0027271523 -0.085697934 -0.03428703
-0.12589025 -0.12746407 -0.15655115 -0.14931294 -0.09361241 -0.102096215 -0.15139204 -0.17955245
-0.22082104 -0.24660356 -0.1955672 0.025313018 -0.04688162 -0.036038935 -0.10668379 0.010467335
0.04364851 -0.09253919 -0.11038812 0.068235934 0.054029893 0.03157692 -0.065751895 0.0075634806
00000000: 3aba 723d 077f 993d b4f0 09bd 2004 cf3b
00000010: 5009 953b f0ab 063c 40c8 f93b 66d1 63bd
00000020: 1989 78bd 94f2 70bd fbe3 8dbd 5bce 0d3d
00000030: 0615 513d f914 7ebd 9587 99ba fb2c c9bd
00000040: d1cf e3bb 408a efbd 78a7 e2bb 3869 7dbd
00000050: bb66 993d 1fa2 23bd 9219 793d 2a2e b0bd
00000060: 20f7 99bd 2aaa 68bb d115 9e3b 68fb 3fbc
00000070: 6722 a43d 8395 17bd 3906 a6bd 2095 f03b
00000080: e0c6 1f3d bb95 9d3d 6276 963c a8a6 abbc
00000090: 930e 673c 6ae9 963c d2e4 6bbd 593f 86bd
000000a0: 0573 d5bd a728 ef3b 39d3 7cbd 2667 7b3c
000000b0: f543 aebd 5c14 413d 1437 103d f9aa 153d
000000c0: 5c4b 63bd bb52 42bd 636d bc3b e45d 9b3b
000000d0: 7489 4fbd 4595 953d 7686 463d d856 2ebc
000000e0: 1736 943d 3a8c f8bc 6176 a23d 311f 25bd
000000f0: edee 9ebd be24 493d 1815 7f3c 2623 7cbd
00000100: 908e 0cbc c070 d5bd 8e09 c73b ac8e 8abd
00000110: dee7 85bd 22c1 64bd 1d8a c4bd 1ba0 52bd
00000120: e283 acbd 664d f039 0239 503d 4d01 0dbd
00000130: 03fe 72bd 9ec5 51bd 564d ccbc db72 9ebd
00000140: 1319 ee3c 2339 67bc 5e87 a3ba 806d a4bc
00000150: 8f2f 92bd dc0d d93c a0aa 88bc d070 a53c
00000160: f4f3 923c 22c6 0b3d 990a 92bc daf6 353d
00000170: 0e6f 30bc fc71 d6bc 76c9 773c 77a9 c1bc
00000180: a1de da3c de56 a4bd 8940 283b 8d5c 43bd
00000190: b177 6bbd e1f2 d7bc 9f28 5fbb 4593 56bd
000001a0: bb71 553d c6ea 9dbc 9b03 b4bb 1fdd 493c
000001b0: 4525 41bc 0056 b23b c948 3dbd d01d b7bc
000001c0: 498d 2abd febe 4c3d fcc4 c53c be88 b33c
000001d0: 88a1 36bd 25ac ab3a a8e0 81bd 7d6b 833c
000001e0: c8ec 2d3d bc76 85bd 71f4 17bd d4c2 81bd
000001f0: b64b 9bbd 144c b6bc f7e5 1abc dba2 c7bd
00000200: 718e 803d c6b8 2dbd 86d5 8a3a 23e0 e53c
00000210: 1a24 95bc 7f43 053d 29d0 96bd 0e66 313d
00000220: b3cc 223d f635 3abd 5710 903c 36dc 4e3d
00000230: d844 8fbd a0d2 84bd 0640 9f3d 4078 4bbb
00000240: 8b70 90bc d932 43bd 30d2 ec3b f3e8 793d
00000250: 1261 1ebd 3f49 9cbc de25 c3bd fd7a 37bc
00000260: 22b3 f939 e839 123d b464 64bd ccc9 ce3b
00000270: 02c5 a1bd d864 bebd 827b 53bd 974f 303c
00000280: 220a a23b d67b 11bd d258 17bd b7e3 2cbd
00000290: 47e7 f73c 95c0 bd3c 3ba2 8bbd c8f7 073c
000002a0: ebc8 eb3c 8654 063d eb4b 99bd 5a45 8bbd
000002b0: 4e7f 3ebd d358 9ebd db72 7fbd c914 ff3c
000002c0: 321e 97bd f71e 9d3c 69ff 8b3b 3b67 56bd
000002d0: a045 f53c ec40 cfbb 25f5 efbd d55a 69bd
000002e0: 8a55 b1bd db07 a2bd b491 b8bd 36b6 d1bb
000002f0: eb87 aabd bef4 cfbc 7f69 083d d3d1 80bd
00000300: 80f4 d13a aecb a4bd 7b18 09bd 28df 553d
00000310: 20af 563d 6b41 aa3d c7f1 7cbd 63d1 bdbc
00000320: 6740 263d 338a 753d b560 1d3c b3e4 333c
00000330: e2ca d4bc 1c85 23bc feae 92bd 5c80 47bd
00000340: f8ab cdbd ca0f b3bc a841 d1bd e786 d8bd
00000350: 09c2 f1bd e0fa 983c e51a c23c acc2 5ebc
00000360: c052 03bc 715e 9a3c 9350 c1bd a005 af3c
00000370: 7713 973d fd1e f13c 467a b7bd 71be 4c3d
00000380: f6a5 47bd ce5a 12bd 0093 cb3c 476b 67bd
00000390: 4f1e 21be 06ba 323b 6682 afbd 8f70 0cbd
000003a0: 60e9 00be f185 02be f24e 20be 7ee5 18be
000003b0: ddb7 bfbd d217 d1bd 8406 1bbe 99dc 37be
000003c0: e91e 62be a585 7cbe c542 48be 3f5d cf3c
000003d0: f106 40bd 909d 13bd 087d dabd 2f7f 2b3c
000003e0: c8c8 323d 3085 bdbd 2b13 e2bd 48bf 8b3d
000003f0: 734e 5d3d cd56 013d eea8 86bd 13d7 f73b

sequential_2/dense_5/MatMul f4 [10, 128]
0.1054836 -0.17375398 -0.05521799 0.05655151 0.13683024 -0.48514938 0.12392508 0.049729005
-0.35348094 0.17639504 0.084019735 -0.12063626 -0.12484783 0.12011869 -0.65871674 -0.2482558
-0.05419647 0.2541416 -0.04935973 0.1656147 -0.013964472 -0.046589203 0.26751176 0.037667796
-0.5849521 -0.4680915 0.21712281 0.13206209 0.03766704 -0.3172933 -0.013073948 -0.305323
0.12415888 0.05919958 0.5186573 -0.22351187 -0.08659449 0.13739425 -0.054173112 0.04060226
-0.54769003 -0.20074375 -0.16036095 0.48511177 -0.17673045 -0.001218115 0.027311467 -0.05549925
-0.21806636 -0.124291696 0.13767081 0.15224867 0.1361774 0.28742367 0.23588656 0.29542398
0.072461635 0.06659543 -0.081567965 -0.22545478 0.12967533 -0.32759047 -0.078930825 0.0844789
-0.84146076 0.32462254 -0.047414333 -0.18446858 -0.07361547 0.0026851087 -0.26510257 0.009828943
0.07623656 -0.2953676 -0.3129023 -0.00986324 -0.1429599 -0.30520955 -0.9166993 -0.0039073667
0.1983315 0.122033685 -0.100038715 -0.3206366 -0.3424147 0.037554413 0.16946653 -0.18008897
-0.6163486 -0.0054865014 0.07126826 0.04363887 -0.322898 -0.44447398 -0.023356851 -0.044007227
0.13473292 -0.029984389 -0.2200741 0.14526035 0.09180467 0.09658775 0.09467824 0.12170746
-0.08543536 -0.106897555 0.13408148 -0.36796477 -0.4926209 -0.3662841 -0.8866821 0.18269958
0.096525475 -0.070840955 0.11930996 0.0149502475 0.13110574 -0.30452743 -0.41002473 -0.1277695
0.4851858 0.18149126 -0.21655364 0.274537 -0.78501385 0.11691092 -0.14394918 0.11780137
-0.3440338 0.07241283 0.35390937 0.092338964 0.030978493 -0.40729138 0.4004703 0.122725315
-0.9829223 -0.4393224 -0.5558621 0.18155108 0.17288335 -0.17972364 -0.31196117 -1.385956
0.077477396 -0.48103824 -0.049488805 -1.1892307 0.20946215 0.20981106 -0.025526624 0.18775663
-0.44585532 -0.07492408 -0.016590374 0.05893357 -0.58521223 -0.020712089 0.16491029 0.13957573
-0.41303957 -0.022084137 -0.39176324 -0.7489579 0.10569634 0.11469228 -0.32788876 -0.027870622
-0.2982392 -0.6097819 -0.13378678 -0.4257923 0.10495172 0.020222489 -0.3699011 0.13587937
-0.13351181 0.24752364 -0.124697685 -0.47302866 -0.18696797 0.09955099 -0.081171215 -0.50607836
-0.10022024 0.24626906 -0.10386712 -0.22096814 0.15692033 -0.12516962 -0.5219491 -0.13240063
-0.5214259 -0.8753154 0.0981566 -0.054514077 -0.41007343 0.35051453 0.41454342 0.5019632
-0.69432914 0.43070585 -0.49936724 0.19132653 0.050116505 -1.0568593 -1.1072878 0.05107394
-0.13032974 -0.12164258 -0.31381404 -0.3304608 0.7479945 0.112407684 -0.02780693 0.33346564
-0.7319677 -0.4763432 0.3331562 -0.110032625 -0.022165045 -0.35855854 -0.07639734 0.6019782
-0.07743926 -0.38138288 -0.36487785 -0.06137466 -0.29237565 -0.1682363 -0.33999228 -0.20605655
-0.024482332 -0.0031823937 -0.015180038 0.68547857 0.5601737 -0.19364727 0.4043219 -0.44479504
0.124409296 -0.3839071 0.17111671 0.2481627 -0.012430187 -0.77587163 -0.09605384 0.035867635
-0.28382522 0.023092343 0.011412629 -0.28926256 -0.18308555 0.28064197 -0.25664917 -0.39176658
00000000: c907 d83d 90ec 31be 422c 62bd 8ea2 673d
00000010: 3a1d 0c3e 8065 f8be 6fcc fd3d a4b0 4b3d
00000020: 74fb b4be e7a0 343e 8a12 ac3d 2510 f7bd
00000030: 38b0 ffbd ca00 f63d a9a1 28bf c536 7ebe
00000040: 1efd 5dbd d91e 823e 6e2d 4abd e696 293e
00000050: 3ecb 64bc 52d4 3ebd 4df7 883e 8c49 1a3d
00000060: 6cbf 15bf b0a9 efbe 7155 5e3e 493b 073e
00000070: c148 1a3d 4474 a2be 1d34 56bc 4c53 9cbe
00000080: 0347 fe3d 427b 723d bac6 043f 4ce0 64be
00000090: 7458 b1bd 14b1 0c3e a0e4 5dbd 8e4e 263d
000000a0: 6a35 0cbf c58f 4dbe a935 24be 9260 f83e
000000b0: d4f8 34be 28a9 9fba 4cbc df3c 2e53 63bd
000000c0: ca4c 5fbe a58c febd 94f9 0c3e 13e7 1b3e
000000d0: 1772 0b3e 3229 933e 3f8c 713e d041 973e
000000e0: c466 943d 2f63 883d 1b0d a7bd 9edd 66be
000000f0: 9cc9 043e f0b9 a7be 7ca6 a1bd 4603 ad3d
00000100: f969 57bf ed34 a63e 8835 42bd 55e5 3cbe
00000110: b5c3 96bd a6f8 2f3b 86bb 87be 9309 213c
00000120: ea21 9c3d 6c3a 97be bb34 a0be 6d99 21bc
00000130: 1464 12be 6d44 9cbe ceac 6abf 5e09 80bb
00000140: 6a17 4b3e ccec f93d 19e1 ccbd 7b2a a4be
00000150: fb50 afbe a8d2 193d a288 2d3e 3e69 38be
00000160: 06c9 1dbf 1cc8 b3bb 18f5 913d acbe 323d
00000170: e352 a5be 1892 e3be de56 bfbc ec40 34bd
00000180: 6df7 093e d2a1 f5bc 1b5b 61be 21bf 143e
00000190: 1604 bc3d cccf c53d aae6 c13d c341 f93d
000001a0: bcf8 aebd 1bed dabd a84c 093e e165 bcbe
000001b0: ce38 fcbe 9789 bbbe 99fd 62bf 9915 3b3e
000001c0: 26af c53d 1015 91bd c858 f43d e2f1 743c
000001d0: 9540 063e 05eb 9bbe c3ee d1be 02d6 02be
000001e0: 466a f83e d8d8 393e 3dc0 5dbe 1d90 8c3e
000001f0: abf6 48bf fe6e ef3d 6a67 13be d841 f13d
00000200: 3325 b0be 2e4d 943d 9c33 b53e 361c bd3d
00000210: 9cc6 fd3c 7f88 d0be 710a cd3e 6957 fb3d
00000220: cca0 7bbf deee e0be fb4c 0ebf 87e8 393e
00000230: 5508 313e 7909 38be 60b9 9fbe 0267 b1bf
00000240: 78ac 9e3d a54a f6be c6b4 4abd b638 98bf
00000250: 3f7d 563e b6d8 563e 361d d1bc 4643 403e
00000260: 2647 e4be cc71 99bd 89e8 87bc 5464 713d
00000270: 78d0 15bf 66ac a9bc 3ede 283e f1ec 0e3e
00000280: ec79 d3be cbe9 b4bc 3195 c8be b4bb 3fbf
00000290: 5377 d83d c9e3 ea3d 09e1 a7be ee50 e4bc
000002a0: cfb2 98be ab1a 1cbf 67ff 08be 7301 dabe
000002b0: edf0 d63d a2a9 a53c ad63 bdbe f623 0b3e
000002c0: 52b7 08be d676 7d3e 8061 ffbd d030 f2be
000002d0: 8874 3fbe 64e1 cb3d 183d a6bd 5a8e 01bf
000002e0: 4540 cdbd f52d 7c3e 49b8 d4bd 7945 62be
000002f0: b9af 203e 772c 00be 759e 05bf 0894 07be
00000300: 2b7c 05bf ac14 60bf 5406 c93d 274a 5fbd
00000310: 25f5 d1be a476 b33e 093f d43e a980 003f
00000320: 8ebf 31bf 7a85 dc3e 10ad ffbe 1aeb 433e
00000330: f746 4d3d 2a47 87bf 9bbb 8dbf e832 513d
00000340: 2975 05be bf1f f9bd 3cac a0be 2832 a9be
00000350: 917c 3f3f 0036 e63d 5ccb e3bc 02bc aa3e
00000360: 3c62 3bbf 42e3 f3be 7393 aa3e c958 e1bd
00000370: 7893 b5bc fc94 b7be 3576 9cbd 3e1b 1a3f
00000380: 7a98 9ebd 9e44 c3be 45d1 babe ff63 7bbd
00000390: 43b2 95be 2346 2cbe 7813 aebe 7d00 53be
000003a0: 2c8f c8bc b58f 50bb b2b5 78bc 867b 2f3f
000003b0: 8b67 0f3f 784b 46be 4803 cf3e 2dbc e3be
000003c0: 4dca fe3d 798f c4be 3839 2f3e 5d1e 7e3e
000003d0: fca7 4bbc 869f 46bf e0b7 c4bd f1e9 123d
000003e0: 8a51 91be 272c bd3c 09fc 3a3c 391a 94be
000003f0: c77a 3bbe 4eb0 8f3e 8567 83be a195 c8be
