tf_lite_float_16_model.tflite (tflite, 205776 bytes, 4 tensors)

dense_11/bias f2 [10]
000000 f6 ae 60 b5 c2 31 b0 35 c7 b5 4f 2f ce 32 f5 31
       -0.10876 -0.336 0.1799 0.3555 -0.361 0.1142 0.2126 0.1862
000010 48 b1 c9 b7
       -0.165 -0.4866

dense_10/bias f2 [128]
000000 59 32 9d a3 4b 22 f7 34 be 2e 98 37 2d 38 5f 35
       0.1984 -0.01487 0.01229 0.3103 0.10535 0.4746 0.522 0.3357
000010 6a 38 03 2d 50 20 30 aa 75 33 cb 34 8f 34 b8 36
       0.552 0.0783 0.00842 -0.04834 0.233 0.2996 0.285 0.42
000020 42 38 92 39 ed 31 f4 38 af b5 a8 36 e0 30 2b b3
       0.532 0.6963 0.1852 0.619 -0.3552 0.416 0.1523 -0.224
000030 9e 38 da 37 87 39 7d ad 47 39 51 39 53 a6 48 b4
       0.577 0.4907 0.691 -0.08575 0.6597 0.6646 -0.0247 -0.2676
000040 8c b8 bd a9 bb ab 42 34 7f 35 23 38 ee 2a fe 30
       -0.5684 -0.04483 -0.0604 0.266 0.3435 0.517 0.05414 0.156
000050 92 33 9e 36 21 37 cd 32 db 30 a0 b3 f4 3b 22 36
       0.2366 0.4136 0.4456 0.2125 0.1517 -0.2383 0.994 0.3833
000060 c2 33 60 a4 3d a5 ee b3 a2 22 5e 33 72 33 4b b5
       0.2424 -0.01709 -0.02046 -0.2478 0.012955 0.2302 0.2327 -0.3308
000070 4a 26 b3 33 58 20 55 2f f9 2f 4a 32 e3 38 2c 2b
       0.02457 0.2406 0.008484 0.11456 0.1246 0.1965 0.611 0.05603
000080 d2 32 74 21 ff 1f 73 32 09 b8 1b 2d 5c 94 7e 34
       0.2131 0.01065 0.00781 0.2015 -0.5044 0.0798 -0.001064 0.2808
000090 1e a5 3e 36 d3 35 20 a3 96 2f 69 36 3e 37 10 33
       -0.01999 0.3901 0.364 -0.013916 0.1185 0.4006 0.4526 0.2207
0000a0 ba 31 d4 31 38 a4 94 a2 10 2f 94 a0 26 b5 d8 37
       0.179 0.1821 -0.01648 -0.01285 0.11035 -0.00894 -0.3218 0.4902
0000b0 19 36 6c 34 0e 34 8d 35 0a 34 6c b7 e5 39 9a 38
       0.381 0.2764 0.2534 0.347 0.2524 -0.4639 0.737 0.575
0000c0 04 36 91 b7 3c 31 48 38 e7 31 97 35 1e 38 e5 34
       0.376 -0.473 0.1636 0.535 0.1844 0.3494 0.5146 0.306
0000d0 01 37 35 38 d6 34 ec b3 a2 38 d3 34 b2 3a c3 b5
       0.4377 0.526 0.3022 -0.2476 0.579 0.3015 0.837 -0.36
0000e0 68 b5 49 ad f3 38 c5 a8 5a 36 74 36 d0 30 16 b4
       -0.338 -0.0826 0.6187 -0.03726 0.397 0.4033 0.1504 -0.2554
0000f0 20 2c ca 35 74 37 ac 37 56 ab 92 38 19 2e 2e 35
       0.06445 0.3618 0.4658 0.4795 -0.0573 0.5713 0.0953 0.3237

sequential_5/dense_10/MatMul f2 [128, 784]
000000 8a b0 09 2c 23 36 56 37 3c ac 77 33 b3 2e de b8
       -0.1418 0.06305 0.3835 0.4585 -0.06616 0.2333 0.1047 -0.6084
000010 40 b7 eb b8 0a b9 7a b6 d8 31 e8 b7 2e b8 63 b4
       -0.4531 -0.6147 -0.63 -0.4048 0.1826 -0.4941 -0.5225 -0.2742
000020 10 b5 62 b8 e2 b8 57 bb bf ba a6 b5 0a 30 76 34
       -0.3164 -0.548 -0.6104 -0.9175 -0.8433 -0.353 0.1262 0.2788
000030 8a 38 1a 31 42 af ff 32 91 33 c5 25 16 33 93 35
       0.5674 0.1594 -0.1134 0.2186 0.2365 0.02254 0.2214 0.3484
000040 80 30 c4 34 39 35 ea 2e c3 b8 df b4 fa b6 23 b9
       0.1406 0.2979 0.3264 0.10803 -0.595 -0.3044 -0.436 -0.642
000050 f8 b2 b4 ac f3 b1 8e b3 ab b9 5b ba 0b b9 5b b9
       -0.2178 -0.0735 -0.1859 -0.2361 -0.7085 -0.7944 -0.6304 -0.6694
000060 be b7 bd af cb 36 96 2a 4b 35 a1 36 a9 2b 01 2d
       -0.484 -0.1209 0.4246 0.05145 0.3308 0.4143 0.05984 0.0782
000070 94 ad b1 b4 f6 a7 cb 36 15 34 42 35 d8 33 a4 28
       -0.08716 -0.2932 -0.0311 0.4246 0.2551 0.3286 0.2451 0.03625
000080 44 2a 48 2f 74 a9 a4 b8 dc b4 a9 35 18 36 00 30
       0.04895 0.1138 -0.0426 -0.58 -0.3037 0.3538 0.3809 0.125
000090 c4 b8 00 b3 4d b4 e2 ae a0 9c 5b 34 1e 35 24 36
       -0.5957 -0.2188 -0.2688 -0.10754 -0.004517 0.2722 0.3198 0.3838
0000a0 33 39 5b 30 8a 34 5d ac 98 b4 a5 b1 7c 2d ea 38
       0.65 0.1361 0.2837 -0.0682 -0.287 -0.1764 0.0857 0.6143
0000b0 33 2c 40 30 3c 2c 67 2f b9 34 62 31 52 34 9c a3
       0.0656 0.1328 0.06616 0.11566 0.2952 0.1682 0.27 -0.01486
0000c0 c4 b8 a5 30 b7 36 05 b6 3f b5 24 b4 5d ad eb 21
       -0.5957 0.1451 0.4197 -0.3762 -0.328 -0.2588 -0.0838 0.01156
0000d0 b3 b1 01 af b4 29 b5 36 b9 38 b3 31 14 2f 93 a8
       -0.1781 -0.10944 0.04456 0.4192 0.5903 0.1781 0.1106 -0.03574
0000e0 ac b7 ad ac 8f ad a8 35 c8 34 39 32 35 2c 99 34
       -0.4795 -0.07306 -0.08685 0.3535 0.2988 0.1945 0.06573 0.2874
0000f0 c7 b0 5f b0 64 25 b1 ab d8 31 ef 32 5c 2c 23 af
       -0.1493 -0.1366 0.02106 -0.0601 0.1826 0.2167 0.0681 -0.1115
000100 f2 b4 9d b6 e3 b7 e2 b1 25 ad e1 31 b3 30 6d 35
       -0.309 -0.4133 -0.493 -0.1838 -0.0804 0.1837 0.1469 0.339
000110 1b 31 5a a5 fe 24 42 b3 9b b4 bc b5 e5 ac 37 32
       0.1595 -0.0209 0.0195 -0.2268 -0.2878 -0.3584 -0.0765 0.1942
000120 d8 29 76 31 8f 2e 17 b2 34 b0 68 b0 e7 b4 9e b0
       0.04565 0.1707 0.1025 -0.1903 -0.1313 -0.1377 -0.3064 -0.1443
000130 8c a7 58 2e 49 a5 00 b1 77 b3 74 b4 e1 b7 41 b6
       -0.02948 0.0991 -0.02065 -0.1562 -0.2333 -0.2783 -0.4924 -0.3909
000140 d8 ab 55 2b e5 35 5e 31 13 31 fd 2f f1 b5 4d af
       -0.06128 0.05728 0.3684 0.1677 0.1586 0.1248 -0.3713 -0.1141
000150 83 b4 3d b8 40 2d 2a 2c 1b af 1b 34 b9 2c c2 b4
       -0.282 -0.53 0.08203 0.06506 -0.111 0.2566 0.0738 -0.2974
000160 57 b3 b0 ae a9 b3 15 b1 3a b5 43 2c 1d b0 21 b3
       -0.2294 -0.1045 -0.2394 -0.1588 -0.3267 0.0666 -0.1285 -0.2228
000170 19 1e a7 b3 66 b5 6a b6 79 a9 aa 30 5e 34 13 33
       0.005955 -0.2391 -0.3374 -0.401 -0.04276 0.1458 0.273 0.2211
000180 63 31 30 a9 4a b8 e0 b6 41 b8 07 b7 11 2e 35 2a
       0.1683 -0.04053 -0.536 -0.4297 -0.5317 -0.4392 0.0948 0.0485
000190 23 b4 93 33 99 a9 d2 b5 3b b5 66 af 0c b2 5b a7
       -0.2585 0.2367 -0.04373 -0.3638 -0.327 -0.1156 -0.189 -0.02873
0001a0 0f af 79 31 02 34 53 a2 b9 af ad ad 13 b4 c0 b5
       -0.1103 0.171 0.2505 -0.01235 -0.12067 -0.0887 -0.2546 -0.3594
0001b0 2b b3 b0 2c 8c 2b 54 b0 21 b4 04 b2 61 2b af b1
       -0.224 0.07324 0.05896 -0.1353 -0.258 -0.188 0.05765 -0.1776
0001c0 5f b9 ef b8 d0 ad 16 a9 62 b2 eb 2e 0d 2d 44 a8
       -0.6714 -0.6167 -0.0908 -0.03973 -0.1995 0.1081 0.0789 -0.03333
0001d0 5e ae a8 b3 70 b2 e9 29 67 31 bf 36 13 36 c3 33
       -0.0995 -0.2393 -0.2012 0.04617 0.1688 0.4216 0.3796 0.2426
0001e0 9f 2a ba b2 1c b1 2d b1 fe ae 39 18 82 af e4 b3
       0.05173 -0.2102 -0.1597 -0.1617 -0.10925 0.002062 -0.1173 -0.2466
0001f0 37 af df 23 42 94 63 a5 54 b6 c7 b7 b2 31 52 23
       -0.11273 0.01537 -0.0010395 -0.02104 -0.3955 -0.486 0.178 0.0143

sequential_5/dense_11/MatMul f2 [10, 128]
000000 72 37 7e 2b 1a b3 38 af 8a 31 29 2e 92 b8 be 2a
       0.4653 0.05853 -0.2219 -0.1128 0.1731 0.09625 -0.5713 0.05267
000010 4e b4 0e 31 63 32 48 b8 ca 2b 7a 2f 4e b3 36 2e
       -0.269 0.158 0.1996 -0.535 0.06085 0.1168 -0.2283 0.09705
000020 a8 2f cc b6 bf 25 7f b7 94 2d bd b1 92 2c 2e 2d
       0.1196 -0.4248 0.02245 -0.4685 0.08716 -0.1793 0.0714 0.08093
000030 1f 32 29 ae 63 b1 6b ac 3c 2e 93 b2 3f a5 26 aa
       0.1913 -0.09625 -0.1683 -0.06903 0.0974 -0.2054 -0.0205 -0.04803
000040 38 33 ba af 02 2c 9a 26 d6 21 00 af 5d ac 09 b8
       0.2256 -0.1207 0.0626 0.02579 0.0114 -0.1094 -0.0682 -0.5044
000050 00 22 df 2f dc 32 59 b2 92 ac 35 b4 3f b0 c9 2a
       0.01172 0.123 0.2144 -0.1984 -0.0714 -0.263 -0.1327 0.053
000060 31 23 94 29 b1 ae 59 2b 34 2e b4 2d c9 b6 70 ae
       0.014046 0.04358 -0.10455 0.0574 0.0969 0.0891 -0.424 -0.1006
000070 e3 b5 e2 2e 89 ab 4d 2e a2 29 84 b6 61 b0 1e 34
       -0.368 0.10754 -0.05887 0.09845 0.044 -0.4072 -0.1368 0.2573
000080 f0 af f1 29 6e 22 d1 aa ee b2 e9 b7 e8 ad 07 b1
       -0.124 0.04642 0.01256 -0.05325 -0.2166 -0.4944 -0.0923 -0.1571
000090 b0 b6 20 30 ea b4 60 31 62 b5 e8 ba c0 38 e6 27
       -0.418 0.1289 -0.3071 0.168 -0.3364 -0.8633 0.5938 0.03085
0000a0 cf ae 6e 2f a8 a9 60 aa 66 32 8d b1 39 2e f9 bc
       -0.1064 0.1161 -0.0442 -0.0498 0.2 -0.1735 0.0972 -1.243
0000b0 9d 34 b2 b6 93 2f 9f b2 cc b3 7e b2 aa b5 f1 31
       0.2883 -0.4185 0.11835 -0.2069 -0.2437 -0.2029 -0.354 0.1857
0000c0 61 36 f5 ae 49 b7 cf 34 2e b7 5f a6 a9 ae ff b0
       0.3987 -0.1087 -0.4553 0.3005 -0.4487 -0.02489 -0.10406 -0.1561
0000d0 fe b4 21 33 7b 31 af 30 19 32 55 b6 89 31 f3 23
       -0.312 0.2228 0.1713 0.1464 0.1906 -0.3958 0.173 0.015526
0000e0 da 27 58 30 fe 34 e4 20 18 97 a8 ab 9d b1 11 32
       0.03067 0.1357 0.312 0.00955 -0.001732 -0.0598 -0.1754 0.1896
0000f0 48 b6 e9 26 03 b5 f3 b1 98 31 89 b5 29 29 fd b0
       -0.3926 0.027 -0.3132 -0.1859 0.1748 -0.346 0.0403 -0.1559
000100 20 be 8b b1 08 b3 3e b5 2c b6 bf 9c a7 b1 db b3
       -1.531 -0.1732 -0.2197 -0.3276 -0.3857 -0.004635 -0.1766 -0.2455
000110 bc b9 ee 34 5a af 1a b1 28 38 07 37 3f 31 37 b3
       -0.717 0.308 -0.11487 -0.1594 0.5195 0.4392 0.164 -0.2255
000120 b8 b6 f6 30 7e b9 0b b0 d0 2c c5 b9 c8 35 94 38
       -0.42 0.155 -0.6865 -0.1263 0.0752 -0.721 0.3613 0.5723
000130 b0 b0 44 b6 10 b7 1b 39 90 b0 44 34 b0 b8 50 b5
       -0.1465 -0.3916 -0.4414 0.638 -0.1426 0.2666 -0.586 -0.332
000140 6c 36 4a b0 e3 b7 1c b5 c5 30 2f b7 40 b5 b1 36
       0.4014 -0.134 -0.493 -0.3193 0.149 -0.449 -0.3281 0.4182
000150 5c b6 53 ba 3a 2c 30 b8 34 b1 27 a4 2d 21 d9 a9
       -0.3975 -0.7905 0.06604 -0.5234 -0.1626 -0.01622 0.01011 -0.0457
000160 a9 31 c0 a4 30 b1 03 b1 4a 33 62 30 81 ba c6 30
       0.1769 -0.01855 -0.1621 -0.1566 0.2278 0.137 -0.813 0.1492
000170 69 3b 3e b4 74 b4 87 b3 98 b4 3c b0 1a b5 da 26
       0.9263 -0.2651 -0.2783 -0.2352 -0.287 -0.1323 -0.3188 0.02676
000180 f0 bc a0 b7 70 36 88 b8 92 b5 a6 b3 ac ae ac 31
       -1.234 -0.4766 0.4023 -0.5664 -0.3481 -0.239 -0.10425 0.1772
000190 ac b3 a3 31 4f 30 9f b1 d8 32 ba 32 81 b9 ac b5
       -0.2397 0.1761 0.1346 -0.1757 0.2139 0.2102 -0.688 -0.3545
0001a0 55 39 06 b2 35 30 56 b0 ad b7 29 a4 5b 31 57 bc
       0.6665 -0.1882 0.1315 -0.1355 -0.4797 -0.01625 0.1674 -1.085
0001b0 54 b7 10 b8 0a b5 19 33 27 ba c0 34 87 2f 6f b6
       -0.458 -0.508 -0.315 0.2218 -0.769 0.2969 0.1176 -0.402
0001c0 2a b8 c7 b6 66 39 d3 b8 8f a9 25 b6 bf b2 ff b2
       -0.5205 -0.4236 0.675 -0.603 -0.04343 -0.384 -0.2108 -0.2186
0001d0 d3 30 b0 b9 d0 b6 8b 34 e0 b5 a2 b4 73 2e 0e a7
       0.1508 -0.711 -0.4258 0.284 -0.3672 -0.2896 0.10077 -0.02756
0001e0 22 24 f9 b8 59 2b 3a b2 09 31 2f aa d4 bd b7 35
       0.01614 -0.6216 0.0574 -0.1946 0.1573 -0.0483 -1.457 0.3572
0001f0 54 b5 54 36 e7 b2 34 b4 b3 b8 0b b7 c7 38 4b ba
       -0.333 0.3955 -0.2157 -0.2627 -0.5874 -0.4402 0.597 -0.7866
